word_order/results/model.pth (torch, 134035 bytes, 4 tensors)

fc1.weight f4 [128, 256]
00000000: 0d6b 00bd a2da 88bc e263 d93d ab2d 00bb
00000010: c1c0 db3c fc27 dabc 2b4b e03d 2b70 e23a
00000020: 95aa f63c 2e72 87bd 65bb dcbc 1797 8bbb
00000030: 7fe8 21bd bb71 8cbc 71e9 a4bd 17dd 893d
00000040: 5375 443d 71d8 adbc 2980 69bd 36b6 923d
00000050: 1f31 cdbc 1cce d2bd 4859 87bd 17d8 6737
00000060: 8fcc 9ebd d05a e6bb 2a03 78bd e69a 53bd
00000070: c2bd 00bd 78ba 24bd eb99 423d 9148 cf3b
00000080: 6604 5a3d 9072 dcbc 57d7 b73d 6f1c cf3d
00000090: 2a41 9cbd c69d e33c 4910 67bb f1ab afbd
000000a0: cf3d aa3d 75f6 8ebd 87d5 a03d f90a cbbd
000000b0: 48bf 453d 1ec5 443d 0bbb f338 404e 613d
000000c0: 617c e1bd dd67 cf3c a3d8 89bd 53b1 28bd
000000d0: 1242 c8bd dd72 1cbc d1b4 973c 7d52 c53c
000000e0: 237a 913d 9cbc 20bc 13bb 463d 760d 4abd
000000f0: 6602 723d a59c 84bc 8d89 d53d 0621 45bc
00000100: 84c8 f23d 5595 6a3c 19da efbc b8f0 9d3c
00000110: dbfb 6ebd b7e6 e5bc 6164 ca3c 35ef a23b
00000120: 5dbe bd3b 69dc 92bd 787e 253d ed87 25bd
00000130: 97a9 283d 148b a1bd cc26 6abd 2e30 a7bd
00000140: 611e e73b 805c 11bd 36a9 bfbc 2cfa e83c
00000150: 49c9 773d 5eb9 a8bc cd4c dfbc 0d79 28bd
00000160: 4125 8e3c 724f 523d d92f a1bc b1b1 f7bd
00000170: e185 353d 0761 8e3d f0f5 22bd b0df 79bc
00000180: 9baf d23d dd13 943b 9435 a9bd 9071 9b3b
00000190: 80ac 2ebd b1b1 713d a784 453d 5033 563c
000001a0: 3359 22bd 0c00 e7bc 0b2d 28bd 8582 c0bc
000001b0: 90ad be3c 64e4 863d a4d6 1bbd 186b ac3d
000001c0: b0d3 b5ba 6651 523d 8026 cb3d 7d1b a53d
000001d0: 5e68 1dbd 3652 a43a b6f2 133d 76f7 103d
000001e0: c52d e73c 2396 1d3d 64ac 78bd 851e 063d
000001f0: 53b0 92bd 139b 69bd 5e96 3b3b 464b a43d
00000200: d96b bbbd c35c 063d 8784 f23d e818 603c
00000210: 10f6 18bc c56e 8e3d 4c4a bfbd 48ba 97bc
00000220: b9ff 3cbd 6db9 3d3d 4027 2abb 53c1 a7bb
00000230: c185 b9bc 3a9d 4b3c 9db4 d93c 0e9f 603d
00000240: bbe6 06bb 1396 753d 08e9 083e 8230 823a
00000250: 0051 2fbd ad74 893d 4073 01be e3c2 90bd
00000260: 8bb9 c4bc 782a 53bd 1547 f63c 084e 023e
00000270: 808e 273d 78dd af3a 158b 34bc 9248 3a3d
00000280: 4926 f73d 66eb c83d acaa 173d e7ec f0bd
00000290: 49f8 0f3d 7dc6 21bd 0ac2 633c 3772 ac3b
000002a0: 9113 093e d930 a8bc daef d7bb d803 4fbd
000002b0: d738 ff3d 8a38 943d e7d8 01bd 90fd d23c
000002c0: d784 d23c 1471 ad3c 8d25 873d 5829 37bd
000002d0: fac7 05be 8f2e 80bd 80e7 313e 6f66 cb3d
000002e0: adb9 afbc beac c0bb db35 153d 5bd7 603d
000002f0: 5cd4 90bd d43b 6abd d30b 263d d64e 193d
00000300: e6a3 eebd 1ab6 d0b9 cefe a5bc 16eb a6bc
00000310: ca0f 1fbe f8a7 45bd 8f02 e1bc 556d 063e
00000320: 877e 01bc 58ab 053d a40d e3bd 087d 833d
00000330: d040 83bb 1390 85bd 5690 4d3d 53fa 253d
00000340: d073 b23c 6df6 a83c 4cde 103d cbbe 1d3d
00000350: 97a6 633d df84 103d c98f 98bd 0215 9fbd
00000360: b58a d6bb bda0 6f3c 2694 9ebc fff8 22bd
00000370: 76ab 14bd b677 ed3d fbfc 8abd b3a7 5d3c
00000380: a3f7 7dbd 508a 89bd 1f2c 17bd f5cb bf3d
00000390: 7d3c 03be 567a ba3c 8b74 d6bc 0205 b43d
000003a0: e1a0 05be ae40 ecbc 62d8 463d cd1f 8d3b
000003b0: f8d0 4d3d 7248 913c 03f4 6abc 0625 893d
000003c0: d92f 4ebd a0b9 563d 3d52 66bb 11f5 74bd
000003d0: 5dc9 583d d8de 22be a435 643d bfd3 99bc
000003e0: d8d4 9a3d 8ff6 8cbc c3e6 2e3c 102b 8abd
000003f0: 6a38 ca3b ac1a 77bd dd95 8f3d d22f f9bc
-0.03135209 -0.016705815 0.10614754 -0.001955847 0.02682531 -0.026630394 0.10951837 0.001727586
0.030110637 -0.06613575 -0.026944825 -0.0042599547 -0.039528366 -0.017144075 -0.08052338 0.06731623
0.04796345 -0.021221371 -0.05700699 0.0716366 -0.025047837 -0.102932185 -0.06608826 1.3818985e-05
-0.0775386 -0.0070298687 -0.060549892 -0.051661395 -0.031430967 -0.040216893 0.04751007 0.0063257893
0.05322685 -0.026910096 0.0897662 0.10112845 -0.076296166 0.027785193 -0.003525751 -0.08577717
0.0831257 -0.06980602 0.07853227 -0.09914202 0.048278123 0.048039548 0.000116219824 0.055006266
-0.110100515 0.02531808 -0.06730773 -0.041184735 -0.09778227 -0.00954887 0.018518837 0.024087185
0.07103374 -0.009810593 0.04851825 -0.049329244 0.05908432 -0.016187975 0.10426626 -0.012031799
0.118546516 0.01431783 -0.029278802 0.019279823 -0.058345657 -0.028064115 0.024706068 0.0049723634
0.0057905153 -0.07170946 0.040403813 -0.040412832 0.04117736 -0.07887855 -0.057165906 -0.081634864
0.007053182 -0.035488605 -0.023396116 0.028439604 0.060494695 -0.020596202 -0.027258301 -0.041131068
0.017351748 0.051345296 -0.019676136 -0.12094439 0.04431713 0.069521 -0.039785326 -0.015251085
0.102874 0.0045189695 -0.08262172 0.0047437623 -0.042644978 0.05900735 0.04822221 0.013073757
-0.03963585 -0.028198265 -0.04105858 -0.023499737 0.02327612 0.06586531 -0.038046494 0.08418864
-0.0013872292 0.05134716 0.09919453 0.080618836 -0.03842961 0.0012536708 0.03612014 0.035392247
0.028220067 0.03847326 -0.06071128 0.03274395 -0.071625374 -0.057032656 0.0028623561 0.0802217
-0.0915143 0.03280331 0.11841684 0.013677813 -0.00933601 0.06954721 -0.09340343 -0.018521443
-0.046142314 0.046319414 -0.0025963336 -0.0051194816 -0.022646787 0.012427622 0.026575381 0.054839186
-0.0020584303 0.059957575 0.13370144 0.0009932669 -0.042801857 0.06711707 -0.1264162 -0.07068422
-0.024014255 -0.051554173 0.030063191 0.12725079 0.040907383 0.0013417443 -0.011019488 0.045479365
0.12067849 0.09810524 0.037028 -0.117639355 0.035148893 -0.039495934 0.013901243 0.005262639
0.1338637 -0.020531105 -0.006589872 -0.050540775 0.12462013 0.072373465 -0.031700995 0.025755674
0.025698109 0.021172084 0.06598959 -0.044717163 -0.13064566 -0.0625888 0.17373466 0.09931647
-0.021450842 -0.0058799675 0.036428314 0.05489288 -0.07071754 -0.057185963 0.04053862 0.0374287
-0.11652355 -0.00039808528 -0.020263102 -0.02037577 -0.15533367 -0.04825589 -0.02746704 0.13127644
-0.007903702 0.03263411 -0.11086586 0.06420332 -0.004005529 -0.065216206 0.050186478 0.04052193
0.02178374 0.020625317 0.03536825 0.038512032 0.055578794 0.035282966 -0.074493 -0.07767679
-0.006547297 0.014625725 -0.019357752 -0.039788242 -0.03629633 0.11595099 -0.067865334 0.013528752
-0.062003743 -0.06715834 -0.03690731 0.093650736 -0.12816043 0.022763412 -0.026178619 0.08790018
-0.13049652 -0.028839435 0.048546202 0.0043067695 0.050248116 0.01773474 -0.0143404035 0.06696515
-0.0503386 0.05242312 -0.0035144233 -0.059804026 0.05292641 -0.1590532 0.05571522 -0.018777726
0.07560128 -0.017207412 0.010675135 -0.06746495 0.006171276 -0.06032817 0.07011006 -0.03041831

fc1.bias f4 [128]
00000000: 3b0e 0d3d de1b 59bd cbf1 703d 3c86 263d
00000010: 6048 023c ebcc 2f3d 7003 70bb 26f3 a8bb
00000020: b555 f6bc 83a8 10bd 7b48 513d 054d b63c
00000030: 69c8 a7bb ba46 18bd 7879 6b3b 838f 41bd
00000040: 6d7d 19bd 6598 5bbd bab9 633d e635 3fbc
00000050: 75c1 dcbb 3ed0 043d 28e4 a9bc 0d58 f73c
00000060: d5e9 a73c cc1a ccbc bcc4 dc3b a3ab 4ebd
00000070: c83e 9f3b 7324 113d 557c a2bc ffee 24bc
00000080: 54b5 16bd 8140 febc c409 7fbc 90d1 12bd
00000090: e7dd 38bd b677 5fbc 2b32 febc 1b48 00bd
000000a0: 4430 1ebd 71fd 64bd 0f45 8e3b 7f92 763d
000000b0: 71c2 3ebd 0278 14bd 47da 613d 855c 12bd
000000c0: 43b9 48bd 9d63 f0bc b6bf 243d b5c4 7f3d
000000d0: 677a 4c3c 0237 1c3d d8da 31bc 005c 24ba
000000e0: b5ea 12bd a4d7 09bd 513a 81bd cb88 253d
000000f0: 4566 493d 94c9 cdbc 6ea8 bcbc 502f c6bc
00000100: b8d8 193c fcc9 27bc aeb1 ce3c 6e42 043c
00000110: a556 16bd 0704 bcbb 2aed f63c e063 40bd
00000120: 7d7a 03bd b79c 303c 7c04 1e3c f608 a1bc
00000130: 1d86 2b3d 0d09 483c b6f9 3dbd 896a 86bd
00000140: 36f3 a83c 35d3 cabc 3e15 243c d857 43bd
00000150: 86e4 003d bc20 d3bc 6efc 263c 2b90 46bb
00000160: ca71 26bd 60de 353d ce48 473d 7b4b 413d
00000170: dd35 78bd 476d 65bd 4d7f 75bc 903e 5e3d
00000180: 1c77 1a3d 83d2 423d cbef edbb b573 b73b
00000190: 912b 60bd eb6a 17bb f8a8 66bd 9365 1c3d
000001a0: 368b 0abd 7863 0abd 13ec 543d 1838 ffbc
000001b0: 31ed 123c 94ed 37bd 2d8b 10bd ea21 eebc
000001c0: 4b88 bcbc 39fc cd3c c29a 8fbc d767 03bd
000001d0: 8f65 6a3c bff4 8a3b 212c 77bd 2192 81bc
000001e0: 58bc 4c3d 131a 2dbd f94a 07bd 6861 703d
000001f0: b3fb 7c3d 482e debc cec4 163d 8b06 81bc
0.0344374 -0.05300509 0.05882434 0.04065536 0.007951826 0.042920034 -0.0036623143 -0.0051559387
-0.030070165 -0.035316955 0.051094513 0.022253523 -0.0051203263 -0.037176825 0.0035930555 -0.047256004
-0.03747313 -0.05361213 0.055597045 -0.011670565 -0.006736929 0.032425158 -0.020738676 0.030193353
0.020497242 -0.024915121 0.0067373198 -0.050456654 0.004859779 0.03543515 -0.019834677 -0.010066747
-0.03679402 -0.031036617 -0.015566293 -0.035844386 -0.045133498 -0.013639381 -0.031029781 -0.031318765
-0.03862025 -0.055905763 0.0043417285 0.060198303 -0.046572153 -0.03624726 0.055139806 -0.035732765
-0.049004804 -0.029344374 0.040221892 0.062443454 0.012480355 0.038138397 -0.010855399 -0.00062698126
-0.035868365 -0.033652917 -0.06309951 0.04041366 0.049169797 -0.025120534 -0.023029532 -0.024192482
0.009390049 -0.010241028 0.025231209 0.008072479 -0.036703724 -0.005737785 0.030142386 -0.04697025
-0.032099236 0.010779551 0.009644624 -0.019657593 0.041875947 0.012209189 -0.04638072 -0.06563289
0.020623785 -0.024758914 0.01001483 -0.047691196 0.031467937 -0.025772445 0.01019202 -0.0030298333
-0.04063586 0.044401526 0.048653416 0.047191124 -0.060598243 -0.056012418 -0.014983964 0.054258883
0.037711248 0.04756404 -0.0072612516 0.00559851 -0.05472905 -0.00231045 -0.056313485 0.038182806
-0.03382417 -0.033786267 0.05198295 -0.031154677 0.008967684 -0.044904307 -0.03528898 -0.029068906
-0.023014208 0.025144683 -0.017529849 -0.03208145 0.01430644 0.004240602 -0.06034482 -0.01581675
0.049984306 -0.042261194 -0.033030484 0.058686644 0.061763477 -0.027121678 0.03680878 -0.01575019

fc2.weight f4 [2, 128]
00000000: c0de 7b3e e001 3f3e 7f55 a73e 42c5 4ebe
00000010: b995 92be aa8e 2ebe 1a56 12be 5579 75be
00000020: 0b28 7c3e 902e 18be 134c 1ebe e466 15be
00000030: 4638 25be 6b6b aabe cc09 84be b76b 8fbe
00000040: 2391 753e 77f0 9d3e 30e1 2c3e 7c2a 76be
00000050: 5e77 34be 55df 043e fa27 65be cf4f 193e
00000060: ae8a 873e 0514 893e 2c78 60be 6837 883e
00000070: 49d3 6a3e e887 51be 83fc 79be c221 f9bd
00000080: f3ff 573e 7140 61be 63a8 9fbe 10ac 833e
00000090: 9c4b 47be 8d75 9dbe 7aa0 443e cbf6 51be
000000a0: c078 893e 4d3d 53be c79f 0a3e 53d0 80be
000000b0: 1b18 edbd b188 90be b140 6f3e 2823 a2be
000000c0: ccf3 68be 233e 813e 96ff 0fbe 0615 9fbd
000000d0: 1bff 203e c965 12be 8f11 9cbe 9b53 773e
000000e0: aea5 4dbe 610b 773e e432 703e 2058 0ebe
000000f0: cf85 8bbe ef2d 17be 91a2 f1bd 8eeb 28be
00000100: 8503 85be f92e 9c3e d3ef 6f3e 4d8d 41be
00000110: 0f7c 913e 5250 5f3e 50cf 423e 903b 89be
00000120: 0ead 44be d480 cfbd 7b84 19be 6e3b 1c3e
00000130: f6ea a53d daa8 91be f545 8abe 61e8 833e
00000140: 0f04 a13e 7a02 ec3d 7856 05be acd2 653e
00000150: e7b3 1cbe 4111 3a3e 878e 3c3e 3e36 a0be
00000160: fc8a 67be 41f6 a13e 95a1 803e d4ad 973e
00000170: d612 033e bdd6 1ebe df4f f23d dbad 99be
00000180: b434 31be 77ae 96be 0673 1d3e 7435 5b3e
00000190: 6766 51be 4d1b 46be 887e 593e 6961 e5bd
000001a0: 8e9e 963e fdea 7cbe 7c98 8f3e eac5 323e
000001b0: 3e2e 393e 09b8 373e e486 683e f062 9f3e
000001c0: 9781 17be 7b4c 8fbe 9ae7 8f3e 1b27 213e
000001d0: d975 46be 8d25 f13d 1428 2b3e 5134 8dbe
000001e0: 3c47 89be c85a 9b3e 1f5f fe3d 0e5f 323e
000001f0: f083 a9be 6b1c 8cbe 3ef0 333e 78bd 5ebe
00000200: 9a5a 89be 6879 63be 60c5 38be c204 6c3e
00000210: 1c86 eb3d a3f4 a53e 3b13 593e bd50 2c3e
00000220: 5180 1dbe 7cd2 6d3e 5bb3 3e3e 54d4 563e
00000230: 2fec 763d fa3a 4e3e 8fa7 943e 3b22 103e
00000240: a5f8 7cbe 51a9 75be ac8b d8bd d158 743e
00000250: 68e4 4d3e e2ef 2fbe d461 953e 5072 f5bd
00000260: 9c8d 83be 2e64 06be 1a04 2d3e 30aa 16be
00000270: 2f75 71be 5549 883e fa2e 8b3e 1bda 0a3e
00000280: 2d37 9bbe d857 fa3d 086f 243e 255f 9fbe
00000290: 72e0 a83e 0b0a 513e 52d2 89be dabd 393e
000002a0: ee9d 4fbe b540 663e 1187 c1bd 559d 563e
000002b0: 7020 613e 681b 493e cfb4 7bbe 8272 4d3e
000002c0: f395 993e df29 a7be 6c76 3c3e 2789 4d3e
000002d0: 0b88 ccbd b930 213e 3c83 863e c5c4 41be
000002e0: 58a9 743e 3d7a 90be d1b3 87be a2fa 433e
000002f0: e117 753e cb3d 763e 22b9 7f3d 1c08 5e3e
00000300: bfbd 5c3e 7eb8 4bbe 6e61 46be eb85 d13d
00000310: f5e2 8dbe fa7b fabd d12f e9bd c6ae 313e
00000320: 3746 923d 690c 203e cf1e b33d 54a7 a4bd
00000330: 3313 97bd 7758 4a3e 84bc a13e 0ee8 25be
00000340: 4ba0 11be 2a5b 56be df44 c03d a755 98be
00000350: ef99 a33e c373 a6be 848c a2be 8b4e 6f3e
00000360: 4b5a 913e ffc5 43be c6ad 56be 0470 6abe
00000370: a746 29be ac1d 2a3e 044e 8ebd 919e 703e
00000380: 6dbd 813e 9cfd 4e3e cb8f c4bd 0b9e 77be
00000390: 8c96 113e 5cb8 353e 3852 88be 1d2b 1d3e
000003a0: 9915 41be 44b8 873e eadf 57be 8b5c 5ebe
000003b0: 9d81 80be 0199 bfbd fe76 3dbe c5c6 3dbe
000003c0: f088 bb3d d5b6 753e 81ae 70be 2762 f4bd
000003d0: 25cb 953d 88d0 38be 872b 5dbe 02f2 803e
000003e0: 222f 243e f2b5 72be c9b6 d3bd 6b04 41be
000003f0: 6e3d 823e f621 653e 8eb7 60be 2f7c 783e
0.24596691 0.18653059 0.32682416 -0.20192435 -0.28629854 -0.1704661 -0.14290658 -0.23972066
0.2462465 -0.14861512 -0.15458708 -0.14590031 -0.16134748 -0.33285078 -0.25788724 -0.28011867
0.23981147 0.30847523 0.16882777 -0.24039644 -0.1762366 0.1297582 -0.22378531 0.14971851
0.26472992 0.26773086 -0.21920842 0.26604772 0.22932161 -0.20462 -0.24412732 -0.12164642
0.2109373 -0.21997239 -0.31183156 0.2571721 -0.19462436 -0.30753747 0.19201842 -0.205043
0.26849937 -0.20628853 0.13537513 -0.2515894 -0.115768634 -0.28229287 0.23364522 -0.31667447
-0.22749251 0.2524272 -0.14062342 -0.07767682 0.15722315 -0.1429664 -0.30482146 0.24152987
-0.20082733 0.24125434 0.23456913 -0.13900805 -0.27250525 -0.14763616 -0.11798585 -0.16496107
-0.25979248 0.30504587 0.2343133 -0.18901558 0.28414962 0.21807984 0.19024396 -0.26803255
-0.1920664 -0.10131994 -0.14991944 0.15257046 0.08101456 -0.28449136 -0.27006498 0.2576323
0.3144841 0.1152391 -0.13021266 0.22443646 -0.15303002 0.18170644 0.18413745 -0.31291384
-0.22611612 0.3163319 0.25123277 0.29624808 0.12800154 -0.15511604 0.118316405 -0.30015454
-0.17305261 -0.2942998 0.15375909 0.2140711 -0.2044922 -0.19346352 0.21239674 -0.1120022
0.29417843 -0.24699016 0.28046024 0.1745831 0.18084046 0.17941298 0.22707707 0.3113017
-0.14795528 -0.27988037 0.28106385 0.15737574 -0.19380893 0.1177474 0.16714507 -0.27578977
-0.2681216 0.30342698 0.12420487 0.17419073 -0.33108473 -0.2736543 0.17572114 -0.21751964
-0.26826936 -0.22214282 -0.18044043 0.2304869 0.11500189 0.32413206 0.21198742 0.16827674
-0.1538098 0.23224825 0.18623106 0.20979434 0.060283836 0.20139685 0.29034087 0.14075558
-0.24704225 -0.2399037 -0.10573515 0.23862006 0.20106661 -0.17181352 0.291762 -0.11984694
-0.25693977 -0.13124153 0.16896096 -0.14713359 -0.23579858 0.26618448 0.27184278 0.13559763
-0.30315533 0.12223786 0.1605798 -0.31127277 0.32983738 0.20413987 -0.26918274 0.18138829
-0.20275089 0.22485621 -0.0944959 0.20958455 0.2198503 0.19639361 -0.24580692 0.20063213
0.29997215 -0.32649133 0.1840455 0.2007185 -0.09986886 0.15741242 0.26272 -0.18922718
0.23892725 -0.2821826 -0.26504377 0.19138578 0.2393489 0.2404701 0.062432416 0.21682781
0.21556757 -0.19894597 -0.19373104 0.10230621 -0.27712217 -0.12230678 -0.113860734 0.17351827
0.07142299 0.15629734 0.08746111 -0.08039728 -0.07376709 0.19760309 0.31589139 -0.16201803
-0.14221303 -0.20933214 0.09388136 -0.29752848 0.3195338 -0.32510194 -0.3174783 0.23369806
0.283892 -0.19118498 -0.20964727 -0.22894293 -0.16530858 0.16612881 -0.06948474 0.23497988
0.25339833 0.20213932 -0.09597739 -0.24181382 0.14217585 0.17746109 -0.26625228 0.15348478
-0.18855895 0.2650777 -0.2108151 -0.2171499 -0.25098887 -0.09355355 -0.18502423 -0.18532856
0.09156978 0.23995526 -0.23504068 -0.119327836 0.07314137 -0.18048298 -0.21598636 0.25184637
0.16033605 -0.23702219 -0.10337598 -0.18849342 0.25437492 0.22376236 -0.2194502 0.24266122

fc2.bias f4 [2]
00000000: 8d8b b9bd ea59 55bd
-0.0905982 -0.0520877
