nation/results/weights.pth (torch, 142984 bytes, 4 tensors)

weight f4 [128, 256]
0	0xbdefe303	-0.11713221
1	0x3e8e26c4	0.2776395
2	0x3e64501d	0.22296186
3	0xbe336de8	-0.17522395
4	0x3c21575a	0.009847486
5	0xbef1f271	-0.4725528
6	0xbe6d50dd	-0.23175378
7	0xbaabcbfd	-0.0013107058
8	0x3dd92916	0.1060354
9	0xbe4e1c44	-0.2012797
10	0xbc3c8ca1	-0.011508138
11	0xbe810710	-0.252007
12	0xbe5e38cd	-0.21701355
13	0x3e722003	0.23645024
14	0xbeac8bd7	-0.3370044
15	0xbebcb3bf	-0.36855885
16	0x3c014554	0.007890064
17	0x3d623c4f	0.055233296
18	0x3eab3c95	0.33444658
19	0xbd9cceef	-0.07656657
20	0xbd5a74bc	-0.053333983
21	0xbd26ea0e	-0.040750556
22	0xbe5309e9	-0.20609249
23	0x3e80963f	0.2511463
24	0xbd0041e2	-0.03131283
25	0x3d903c53	0.07042756
26	0x3d626411	0.055271212
27	0x3e9945b9	0.29936007
28	0xbe46316d	-0.19354792
29	0x3cb06745	0.021533618
30	0xbe891042	-0.26770216
31	0x3d7fcad4	0.06244929
32	0xbdcfa12b	-0.10138162
33	0x3e2166ce	0.15761873
34	0x3cd84552	0.026400242
35	0xbdc6593f	-0.09684991
36	0x3eac7717	0.33684608
37	0xbc4e42dd	-0.012589184
38	0xbdb0b7a4	-0.08628777
39	0xbe3a97c7	-0.18221961
40	0xbcedf077	-0.029045327
41	0xbdd7a158	-0.10528821
42	0xbd7bfa7d	-0.06151818
43	0x3b2a42dc	0.0025979793
44	0x3e04772c	0.12936085
45	0xbead3a3b	-0.3383349
46	0xbdf53fd8	-0.11975068
47	0xbca32ae2	-0.019917909
48	0x3e36f9fb	0.17868797
49	0x3d830258	0.063969314
50	0x3e60b5e2	0.21944383
51	0xbd7216db	-0.059103828
52	0xbe05db3c	-0.13071913
53	0x3d8d8bc2	0.06911422
54	0xbc60ba94	-0.013716359
55	0xbd937e1d	-0.072017886
56	0xbe592f1e	-0.2120938
57	0x3ea2e2dd	0.31813708
58	0x3e3aea93	0.18253545
59	0xbe5379c1	-0.20651914
60	0xbd97bb92	-0.07408823
61	0xbe3188bc	-0.17337316
62	0xbdd717a1	-0.10502554
63	0xbdda6e7f	-0.10665607
64	0xbc491b33	-0.012274551
65	0xbf09c350	-0.5381365
66	0x3e479a6c	0.19492501
67	0xbe14d688	-0.14534962
68	0x3e281e43	0.16417794
69	0xbe468aea	-0.19388929
70	0xbd25e4df	-0.04050147
71	0xbe9ebe1c	-0.31004417
72	0x3c218c24	0.009860072
73	0xbe61b082	-0.22039989
74	0xbdb56228	-0.088566124
75	0xbd4fbe24	-0.05071844
76	0x3ea1b09e	0.3158006
77	0x3e47343d	0.19453521
78	0xbe8df7d9	-0.27728155
79	0x3ec7c6d6	0.39018887
80	0xbe86513b	-0.2623385
81	0x3d861904	0.0654774
82	0x3e477bb2	0.1948078
83	0xbdcf2d9d	-0.10116122
84	0xbd33cacb	-0.04389457
85	0x3dfff865	0.12498549
86	0x3dbe4c9d	0.092919566
87	0xbe894419	-0.26809767
88	0x3d19abcc	0.037517354
89	0xbd7ab515	-0.06120785
90	0x3e5e7e9b	0.21727984
91	0xbea74f40	-0.3267765
92	0xbedaf60c	-0.42765844
93	0x3c939b1e	0.018018302
94	0x3ba178df	0.004927739
95	0xbdf98372	-0.12183274
96	0xbe9a23b4	-0.30105364
97	0xbe8aaff2	-0.2708736
98	0xbd57c559	-0.05267844
99	0x3d0e7584	0.03478004
100	0x3ea782d0	0.3271699
101	0x3d9f5d7c	0.077815026
102	0xbda3578d	-0.07975683
103	0xbd44976a	-0.047995962
104	0x3cf7ec24	0.030263968
105	0xbe8524cc	-0.26004636
106	0x3da12ab7	0.07869475
107	0xbd3ecde1	-0.04658306
108	0x3ce9f0e5	0.02855725
109	0xbcecc28e	-0.028901365
110	0x3e0ec226	0.13941249
111	0xbec10852	-0.3770166
112	0x3d59d374	0.053180173
113	0x3de73821	0.112900026
114	0xbe222d4c	-0.15837592
115	0xbea40091	-0.32031682
116	0xbdda0045	-0.10644583
117	0x3d9cdc5c	0.07659218
118	0x3e655839	0.22396936
119	0xbd8f3ec4	-0.069943935
120	0x3cc3ed24	0.023916788
121	0xbec12f90	-0.377316
122	0x3e424edb	0.18975393
123	0xbe017f5c	-0.1264624
124	0x3ece2461	0.4026213
125	0x3dd7c549	0.10535676
126	0xbe584f4b	-0.21123998
127	0x3e83dd10	0.25754595
128	0x3e161a08	0.14658368
129	0x3e68b020	0.22723436
130	0x3d275aec	0.040858194
131	0x3e9bb193	0.30408916
132	0xbeac4fd1	-0.33654645
133	0x3d89614d	0.06708012
134	0xbe605a41	-0.21909429
135	0xbe3cd2cc	-0.18439788
136	0x3e2f9058	0.17144907
137	0xbe3fe8e6	-0.18741187
138	0x3dd6dfee	0.1049193
139	0xbd3dfbfa	-0.04638288
140	0xbc9a3353	-0.018823301
141	0xbc01ddb4	-0.007926393
142	0x3ccd2064	0.02503986
143	0xbe8217fc	-0.25408924
144	0x3e15ed3a	0.14641276
145	0xbd88537f	-0.066565506
146	0xbe159f6e	-0.14611599
147	0xbdc8f7a2	-0.09812857
148	0x3d803df3	0.06261816
149	0xbddb2d2d	-0.10701976
150	0x3e6f4180	0.2336483
151	0x3dcbd428	0.09952575
152	0xbd8b951a	-0.06815548
153	0xbe5bb62e	-0.21456215
154	0xbd586f25	-0.05284037
155	0x3e20cf06	0.15703973
156	0x3e0a2fae	0.13494751
157	0x3d862071	0.065491565
158	0xbe09efd8	-0.134704
159	0xbe105105	-0.14093406
160	0x3e99160c	0.29899633
161	0x3c9ea5de	0.019366201
162	0x3e95d54e	0.292643
163	0x3db19b4c	0.08672199
164	0x3e26875c	0.16262573
165	0xbeb22e88	-0.34801126
166	0x3df43399	0.11923904
167	0xbc0afded	-0.008483392
168	0x3dcf3cd9	0.10119028
169	0x3d9d1dcc	0.07671699
170	0xbe505be4	-0.20347553
171	0x3e3a5218	0.18195379
172	0x3b10efb3	0.0022115528
173	0xbd3909b2	-0.04517526
174	0x3e0f2e20	0.13982439
175	0xbd520389	-0.051272903
176	0x3e04527f	0.12922095
177	0x3e1b887d	0.15188785
178	0xbd9c85e7	-0.07642727
179	0x3e8395af	0.25700137
180	0xbe14b84b	-0.14523427
181	0x3e9084a4	0.28226197
182	0xbcee30fa	-0.029076088
183	0xbd4a4882	-0.049385555
184	0x3ed1385d	0.40863314
185	0x3de63a2f	0.112415664
186	0x3e087927	0.13327466
187	0xbe8a30d9	-0.26990393
188	0xbe17fe78	-0.14843166
189	0x3cce0d5d	0.025152856
190	0xbe832bf7	-0.2561948
191	0x3d817ad2	0.06322254
192	0x3e4e19b1	0.20126988
193	0x3e45c4ea	0.19313398
194	0x3dfa4bac	0.122214645
195	0xbdbc1a29	-0.09184677
196	0xbd6dd5ae	-0.05806511
197	0xbe2a25f8	-0.16616046
198	0x3c2152a2	0.009846361
199	0x3d3c6306	0.045992874
200	0xbc361969	-0.011114457
201	0x3d46d346	0.04854133
202	0xbe0d0a55	-0.13773473
203	0x3da27b00	0.07933617
204	0x3ee39870	0.44452238
205	0x3e91483d	0.28375426
206	0xbe57da9c	-0.21079487
207	0xbeae3a29	-0.34028748
208	0xbe32c2b3	-0.17457084
209	0x3d61a70c	0.05509095
210	0x3df64f16	0.12026803
211	0xbe5f0442	-0.21778968
212	0xbe261f49	-0.16222872
213	0x3d838864	0.06422499
214	0xbe0851d9	-0.13312472
215	0xbe958a05	-0.29206863
216	0x3dd20733	0.102552794
217	0xbda127cb	-0.07868918
218	0xbcdad09b	-0.026710799
219	0x3b034552	0.0020030332
220	0xbe677b9a	-0.22605744
221	0x3e302d04	0.17204672
222	0xbe53fc10	-0.20701623
223	0x3e3e3900	0.18576431
224	0x3d44b2f0	0.04802221
225	0xbd85c47f	-0.06531619
226	0x3dc6d529	0.09708626
227	0xbb79a1bf	-0.0038090793
228	0x3e77e3ba	0.24207965
229	0x3d1dac48	0.03849438
230	0xbd5165b4	-0.051122382
231	0x3d01ba58	0.031671852
232	0x3d5c9175	0.053849656
233	0x3de5bb06	0.112173125
234	0xbac450af	-0.0014977659
235	0xbc3c4960	-0.011492103
236	0x3d838f98	0.06423873
237	0x3e62e7bd	0.22158714
238	0x3bac5082	0.0052586207
239	0x3e48cb13	0.19608717
240	0xbb89387b	-0.004187641
241	0xbe5c130b	-0.2149164
242	0xbd20cc7c	-0.03925751
243	0xbcb82c1f	-0.022481976
244	0x3e115756	0.14193472
245	0xbd69535e	-0.05696427
246	0xbdf8aea7	-0.12142687
247	0xbe05a53c	-0.13051313
248	0x3dc4889f	0.09596371
249	0x3e1d1282	0.15339091
250	0x3d093750	0.033500016
251	0x3e3602db	0.17774527
252	0x3e0d804b	0.13818471
253	0x3d7953b3	0.060870837
254	0xbe5d5c9c	-0.21617359
255	0xbe62044e	-0.22071955

bias f4 [128]
0	0xbc2589ae	-0.010103626
1	0x3d2b600f	0.041839655
2	0x3e51e3ad	0.20497008
3	0xbd3ddf4c	-0.04635553
4	0x3cb40fc4	0.021980174
5	0x3e028d92	0.12749317
6	0x3e289812	0.1646426
7	0xbdd2f39e	-0.103003725
8	0x3e881e05	0.26585403
9	0xbe4425db	-0.19155066
10	0x3df857ea	0.12126143
11	0x3d1fae10	0.03898436
12	0xbcfe6316	-0.031053107
13	0x3de2f20e	0.110813245
14	0x3e049c52	0.12950256
15	0x3ccbae4b	0.024863383
16	0x3d59422d	0.053041626
17	0x3dadce46	0.08486609
18	0xbd71655f	-0.058934566
19	0x3e26286c	0.16226357
20	0x3e294029	0.16528381
21	0xbd3bb2cd	-0.045824815
22	0xbd983df0	-0.07433689
23	0xbd8cdba2	-0.06877829
24	0xbcb91695	-0.022593776
25	0x3e27edd0	0.16399312
26	0x3df27ae5	0.118398465
27	0x3d89410a	0.06701858
28	0x3e28b939	0.16476907
29	0x3dbf0ace	0.09328233
30	0x3d0e44de	0.034733646
31	0x3d1cf978	0.03832385
32	0x3d401dad	0.0469033
33	0x3e562590	0.20912766
34	0x3e13931a	0.14411584
35	0x3da29890	0.07939255
36	0x3deb2f11	0.114835866
37	0xbbc2ac6c	-0.0059409644
38	0xbd9076a8	-0.07053882
39	0x3e670a8b	0.22562616
40	0xbcc6ac7a	-0.024252165
41	0x3d07c303	0.033144962
42	0x3e2610e4	0.16217381
43	0x3d8b40cf	0.06799471
44	0x3dba1c74	0.09087458
45	0x3e2bdcac	0.16783398
46	0xbd4ebb8d	-0.05047183
47	0x3e1982ed	0.1499135
48	0x3e0346a5	0.12819918
49	0x3e156f81	0.14593317
50	0x3e33c904	0.1755715
51	0x3e290fd5	0.16509946
52	0x3de61a72	0.11235513
53	0x3bdf96c1	0.006823391
54	0x3de88586	0.113535926
55	0x3dcefbb5	0.10106603
56	0x3def681d	0.1168978
57	0x3ca6cd04	0.020361431
58	0xbbb29771	-0.005450182
59	0x3e88060d	0.26567116
60	0x3d6ed01b	0.058303934
61	0x3e7cb0bd	0.24676795
62	0x3d36af4f	0.04460078
63	0x3bc46ef5	0.0059946724
64	0x3e19efd1	0.15032889
65	0x3e3d41cb	0.1848213
66	0x3e3217c4	0.17391878
67	0x3e096796	0.13418421
68	0xbde44c5c	-0.11147377
69	0x3e24c950	0.1609242
70	0x3dfeda34	0.12443963
71	0x3cc06de5	0.023489902
72	0x3d75ae7f	0.059980866
73	0xbcf37869	-0.029720502
74	0x3e4560e5	0.19275244
75	0x3e12cf1c	0.14336818
76	0x3e0871e1	0.13324691
77	0xbc933fe8	-0.017974809
78	0x3dbbd824	0.09172085
79	0x3dc72ca5	0.09725312
80	0x3e516772	0.20449618
81	0x3e297e1a	0.1655201
82	0x3dbaff12	0.09130682
83	0x3e10bd82	0.14134791
84	0x3e7a1c8b	0.24424951
85	0x3e2b7145	0.16742428
86	0x3df6b9a1	0.12047125
87	0xbced5c8b	-0.028974792
88	0x3e4c4971	0.1994989
89	0xbd826efe	-0.06368826
90	0x3e22f842	0.15915015
91	0xbe3fe771	-0.18740632
92	0x3d44d3ff	0.048053738
93	0xbc28f772	-0.010312902
94	0x3d8968f7	0.067094736
95	0x3e1a9007	0.15094005
96	0xbdf046f6	-0.11732285
97	0xbd74de70	-0.059782445
98	0x3da29f66	0.07940559
99	0x3c9fae09	0.019492166
100	0x3dfcd6df	0.12345671
101	0x3dfafcb6	0.12255232
102	0x3d7e8421	0.062137727
103	0xbbb7f6b4	-0.005614126
104	0x3b3c2abd	0.0028711997
105	0x3e176f98	0.14788663
106	0x3dc9368d	0.09824858
107	0xbbc2ad0d	-0.0059410394
108	0x3e26135c	0.16218323
109	0xbcffd575	-0.031229714
110	0x3e6b1b4f	0.22959636
111	0x3d2ec08b	0.042664092
112	0x3d3708de	0.04468619
113	0xbd8fed92	-0.07027735
114	0x3d1060ae	0.03524845
115	0x3daf4126	0.08557348
116	0x3e78b175	0.24286444
117	0xbaf645d8	-0.0018789126
118	0xbd8d5dbf	-0.06902646
119	0x3d0e4b40	0.034739733
120	0xbc7d1084	-0.015445832
121	0x3e5122ce	0.20423433
122	0x3bac16a7	0.005251724
123	0xbd02f8bf	-0.031975504
124	0xbd56f671	-0.05248112
125	0xbdad1ce9	-0.0845278
126	0xbd801dca	-0.06255682
127	0xbcd1125a	-0.025521446

weight f4 [16, 128]
0	0x3df48cdb	0.119409285
1	0x3e0d9ff6	0.13830552
2	0xbf2188f7	-0.63099617
3	0x3e9e7344	0.30947316
4	0x3e8cb587	0.27482244
5	0xbdb4acd7	-0.08822029
6	0xbe9af9f2	-0.30268818
7	0x3f13dd0c	0.57759166
8	0xbde62ec0	-0.112393856
9	0x3e8b0fde	0.27160543
10	0xbddd6bd9	-0.10811586
11	0x3eb2226a	0.3479188
12	0x3e72d19f	0.23712777
13	0xbe8ec68b	-0.2788585
14	0x3dc601bc	0.096682996
15	0xbe43ac39	-0.19108666
16	0x3e2095c6	0.15682134
17	0xbec7703d	-0.3895282
18	0x3e565d89	0.20934118
19	0xbe85421c	-0.26027
20	0xbfac75f0	-1.3473492
21	0x3e138209	0.14405073
22	0x3d4c5108	0.049881965
23	0x3e8fe571	0.28104737
24	0x3eab8153	0.33497104
25	0xbf4dec3c	-0.8043859
26	0xbf1b9340	-0.6077156
27	0xbd73cdcb	-0.05952243
28	0x3d6a3294	0.05717714
29	0x3e77089e	0.24124381
30	0x3e749bc7	0.2388755
31	0x3db083d6	0.08618896
32	0x3dd0c639	0.10194058
33	0x3e42b111	0.19012858
34	0x3e8fe556	0.28104657
35	0x3e2f5866	0.17123565
36	0xbe5cbb26	-0.21555766
37	0x3e85b0d8	0.26111484
38	0x3e844edb	0.25841412
39	0xbf875dd6	-1.0575511
40	0x3e4f4e46	0.20244703
41	0x3dc53ef1	0.09631146
42	0xbf07c76b	-0.5303866
43	0xbe01e1b2	-0.12683752
44	0xbf3a3d80	-0.7275009
45	0xbdf2974c	-0.11845264
46	0xbeb64be2	-0.3560477
47	0x3e94317e	0.2894401
48	0xbf3ccb1f	-0.7374744
49	0xbf0f9440	-0.56085587
50	0xbe24696e	-0.16055843
51	0xbf412e2d	-0.75461084
52	0x3ec4a037	0.38403484
53	0xbf1647f5	-0.5870355
54	0x3e9b85da	0.30375558
55	0x3e47ccfb	0.19511788
56	0x3ea51ea7	0.32249948
57	0xbe231ebd	-0.15929694
58	0x3ca0a959	0.019612001
59	0xbea5c7ad	-0.32378903
60	0xbeca8a9e	-0.39558882
61	0x3e5944f1	0.21217705
62	0x3c43a704	0.011941675
63	0x3e905d27	0.2819607
64	0xbef51888	-0.47870278
65	0xbe1a20b2	-0.15051535
66	0x3c2d2dd6	0.01057001
67	0x3d4ec9cc	0.050485417
68	0x3e593305	0.21210869
69	0xbda1c87a	-0.07899566
70	0xbf0fa8c1	-0.56116873
71	0xbdbe1f90	-0.09283364
72	0x3d9ad3f7	0.0755996
73	0x3e9de741	0.30840495
74	0x3e369adc	0.17832512
75	0x3e0514a2	0.12996152
76	0xbef65eb6	-0.48119134
77	0x3defbcfe	0.11705969
78	0xbec33d8c	-0.38132894
79	0xbf8017b7	-1.0007237
80	0xbe93f2f0	-0.28896284
81	0x3e68cfdf	0.22735547
82	0x3e1d95a1	0.1538911
83	0x3e1b658d	0.15175457
84	0xbea9c1d1	-0.33155683
85	0xbf443cbd	-0.7665518
86	0xbedded18	-0.4334495
87	0x3e954364	0.29152977
88	0xbe70250d	-0.23451634
89	0x3e0303dc	0.12794441
90	0x3e5d7d94	0.21629936
91	0x3db48240	0.08813906
92	0x3e8112e0	0.25209713
93	0x3ea5a52d	0.32352582
94	0x3e89bb40	0.26900673
95	0xbf36ab0d	-0.7135475
96	0xbe368d44	-0.17827326
97	0x3e89c5a5	0.26908603
98	0x3b881eaf	0.0041540484
99	0x3e0aef0e	0.13567755
100	0xbf09d40b	-0.53839177
101	0xbf0c4c50	-0.54803944
102	0xbdf71010	-0.120636106
103	0x3e507557	0.20357262
104	0xbe3cef95	-0.18450768
105	0xbf45bd7f	-0.77242273
106	0x3e7c1ed3	0.24621134
107	0x3d93203f	0.07183885
108	0xbdbd9056	-0.092560455
109	0x3d4fb712	0.0507117
110	0xbe8ed42f	-0.27896258
111	0xbf08682c	-0.53283954
112	0x3e386451	0.18007018
113	0x3deac554	0.114634186
114	0xbeaa83a9	-0.33303574
115	0xbd3dd49e	-0.046345346
116	0xbf917208	-1.1362925
117	0xbe9f8715	-0.31157747
118	0xbea9dbb5	-0.33175436
119	0x3e041529	0.12898697
120	0x3c799ab8	0.015234642
121	0xbe880386	-0.26565188
122	0x3ec10b7a	0.37704068
123	0xbe52d09b	-0.20587389
124	0xbec8a5fb	-0.39189133
125	0x3e8680cb	0.26270136
126	0xbed0ff75	-0.40819898
127	0x3d73f105	0.059556026
128	0x3e110177	0.14160715
129	0x3e662897	0.22476421
130	0x3ebecf29	0.37267426
131	0x3da1bde5	0.07897548
132	0xbe082806	-0.13296518
133	0x3e560875	0.20901664
134	0x3e92c711	0.286675
135	0xbedb8c98	-0.42880702
136	0x3e9f1365	0.31069484
137	0xbe5b9a10	-0.21445489
138	0x3efcc83c	0.49371517
139	0xbf005500	-0.501297
140	0xbf8dcf9c	-1.1078982
141	0xbf1029f2	-0.56314003
142	0x3ebbba61	0.36665633
143	0xbe7f14be	-0.24910256
144	0xbd5138ca	-0.05107955
145	0xbeec166e	-0.46110862
146	0x3d4d5fe5	0.05014028
147	0x3ea17997	0.31538078
148	0x3dd6f4ec	0.10495934
149	0xbe71ad67	-0.23601304
150	0xbebe9f1f	-0.37230775
151	0x3e00299c	0.12515873
152	0x3e9baba8	0.304044
153	0x3e3cb469	0.18428196
154	0xbd0b3c3e	-0.033993
155	0xbe934ce2	-0.28769594
156	0x3e670150	0.22559094
157	0xbeced95f	-0.40400216
158	0xbe8899ed	-0.26679936
159	0x3d85e70d	0.0653821
160	0x3e3bd4a8	0.1834284
161	0x3dd6c096	0.104859516
162	0x3e90e435	0.28299108
163	0x3e38f2e4	0.18061405
164	0x3e31f4de	0.17378566
165	0xbc17f2d3	-0.009274202
166	0x3e1eb1bd	0.1549749
167	0x3ebf0364	0.37307274
168	0x3de59dca	0.112117365
169	0xbd2fa198	-0.042878717
170	0x3e3092c7	0.17243491
171	0x3e73f20f	0.23822807
172	0xbd0ca261	-0.034334544
173	0xbede9ad9	-0.43477514
174	0xbea1cbc1	-0.31600764
175	0x3e699dbd	0.22814079
176	0x3ecceb48	0.40023255
177	0x3eed2bfa	0.46322614
178	0x3e9d7b3c	0.30758083
179	0xbe80025c	-0.250018
180	0x3d3bd7f3	0.045860242
181	0xbf39165d	-0.7229975
182	0x3d6e53df	0.058185454
183	0x3e5c3742	0.21505454
184	0x3cf82479	0.030290829
185	0xbf8d22c3	-1.1026233
186	0xbf9d838d	-1.2305771
187	0x3e8a3e66	0.2700073
188	0x3ece8e3a	0.40342885
189	0x3e8fc4d9	0.2807987
190	0x3f01a7f2	0.5064689
191	0xbeb3ff53	-0.35155734
192	0xbe1d1d23	-0.15343146
193	0x3e4528cb	0.19253843
194	0x3e72a88d	0.2369711
195	0x3eb6d203	0.357071
196	0x3cd15f9f	0.025558291
197	0x3e5201ca	0.20508495
198	0x3f2e2971	0.68031985
199	0x3e82426a	0.25441295
200	0xbf31525e	-0.6926631
201	0x3d098522	0.03357423
202	0x3e34afa2	0.17645124
203	0x3e19c0a6	0.15014896
204	0x3ea03aa2	0.31294733
205	0xbf91ac82	-1.138077
206	0xbeba352f	-0.363687
207	0xbf129851	-0.57263666
208	0x3c99de89	0.01878287
209	0x3e86bb03	0.26314554
210	0x3e911aaf	0.2834067
211	0x3e655629	0.22396149
212	0x3e74ad7a	0.23894301
213	0xbe321006	-0.17388925
214	0xbee4fc7b	-0.44723877
215	0xbe87ecf3	-0.26547965
216	0xbdbf4c2e	-0.09340702
217	0xbe1cdeb2	-0.15319327
218	0x3e356af9	0.17716588
219	0xbf310506	-0.6914829
220	0x3e798fee	0.24371311
221	0xbd89f347	-0.067358546
222	0x3e970830	0.29498434
223	0x3e9fbd62	0.31199175
224	0xbf35b684	-0.7098162
225	0xbd53f81f	-0.0517503
226	0xbcdc53d2	-0.026895437
227	0xbf2ecf65	-0.6828521
228	0xbf1a7366	-0.60332334
229	0xbf659e83	-0.89694995
230	0x3e90495f	0.28180978
231	0xbf913600	-1.1344604
232	0xbcdac420	-0.026704848
233	0x3df25dba	0.11834283
234	0x3dc61c5f	0.0967338
235	0xbf0b6a28	-0.54458857
236	0xbe6c7a5a	-0.23093548
237	0xbf1669ca	-0.5875517
238	0x3df5244e	0.11969815
239	0x3e1b6c27	0.15177976
240	0xbe0fc257	-0.14038979
241	0x3d82e98a	0.063922
242	0xbeca9ef4	-0.39574397
243	0xbe05411e	-0.13013121
244	0x3ad1165c	0.0015952098
245	0x3cf431b4	0.029808857
246	0xbea375ac	-0.31925714
247	0xbf1b0c0b	-0.6056525
248	0x3e8d00c6	0.27539653
249	0x3e3779ee	0.17917606
250	0x3e2ae6a4	0.16689545
251	0xbf63abd0	-0.8893404
252	0xbea9048e	-0.33011287
253	0xbebcea58	-0.3689754
254	0xbd358345	-0.04431464
255	0x3bd21977	0.006411727

bias f4 [16]
0	0xbc134358	-0.008988224
1	0x3d9a8cf6	0.075464174
2	0x3c7976f6	0.015226116
3	0x3dbe19cf	0.09282266
4	0xbd5fcf5c	-0.054641113
5	0xba3cadc1	-0.0007197522
6	0x3e08c837	0.13357626
7	0xbd2e6943	-0.042580854
8	0x3d294098	0.041321367
9	0xbd59d423	-0.053180825
10	0x3d73b111	0.059495036
11	0x3d2a9611	0.04164702
12	0x3d359a39	0.04433653
13	0xbd49f79d	-0.049308408
14	0xbd0d7843	-0.03453852
15	0x3d153521	0.03642762
