age/AgeCls/AgeCls.pth (torch, 138888 bytes, 4 tensors)

weight f4 [128, 256]
000000 41 b5 31 3e 0b 55 25 3e a1 b1 af 3d c4 20 a5 3d
       0.17354299 0.16145723 0.08578802 0.0806289
000010 e8 a1 74 3e 48 e3 36 bc b0 43 05 bd 6a f2 bf bc
       0.23889887 -0.0111625865 -0.032535255 -0.023431022
000020 54 13 32 be 82 b5 74 3d 51 d8 99 bd 58 ac 8e 3d
       -0.17390186 0.05974341 -0.07511962 0.06966466
000030 15 73 67 3e 12 22 82 bd 83 11 43 3d 78 b3 5f bc
       0.22602494 -0.06354155 0.047624122 -0.0136536285
000040 92 19 11 3e 48 ab 52 bd 86 8d d4 bd 18 95 34 be
       0.1416991 -0.051432878 -0.10378556 -0.17635
000050 02 6f ef bd d0 f5 0a 3e 46 83 af 3c de ac 05 bd
       -0.11691095 0.13570333 0.0214249 -0.032635562
000060 e3 fc b6 3d c9 c8 2a 3e 67 21 1e 3e ef 60 5d 3c
       0.08934953 0.16678156 0.1544243 0.01351188
000070 9c 56 81 bd cf 3b 22 be bc 48 63 3e 11 b7 93 3c
       -0.063153476 -0.15843128 0.22195715 0.018031629
000080 ab 3a 76 bd 0e 66 72 3e 50 46 2e be 81 b4 3d be
       -0.060114544 0.23671743 -0.1701901 -0.18525888
000090 f4 9f e7 ba 04 c6 cd 3d 51 d2 91 bd 5b 3b 81 be
       -0.0017671571 0.10047534 -0.07120193 -0.25240597
0000a0 c0 9f 34 bc 1e a6 8a 3e 42 38 0a bd ca 51 85 bd
       -0.0110244155 0.27079862 -0.033745058 -0.06509741
0000b0 5e a0 8f 3e b5 9f 06 be b7 18 4c be ae af bc 3d
       0.28052038 -0.13146861 -0.19931303 0.09213196
0000c0 3e b9 7f bd 72 25 0a 3e 60 c6 a1 be fc 89 88 3d
       -0.06243252 0.13490847 -0.3159666 0.066669434
0000d0 31 03 fc bd 76 fa 8f 3e 20 80 b6 3c 2b 2f 35 bd
       -0.12305296 0.28120774 0.022277892 -0.044234436
0000e0 22 30 0b be 06 c1 52 bd 4f 1c 7f 3d bf 8e 8c 3e
       -0.1359258 -0.051453613 0.062282857 0.27452657
0000f0 f8 e2 2c 3e 22 05 52 be aa 37 9a bd f8 df 55 3e
       0.16883457 -0.2050977 -0.07530148 0.20886219
000100 3b f7 24 3e 81 7e a5 bd ce 39 ab bd 48 19 d6 bd
       0.16109936 -0.08080769 -0.08360635 -0.10454041
000110 9e 72 ba bd 2d 71 1b 3e 43 17 9e bd 13 f2 c9 3d
       -0.09103893 0.15179892 -0.077192806 0.09860625
000120 03 94 2a 3e 02 3c d9 3d 15 74 57 3e 92 10 e1 3d
       0.16658024 0.10607149 0.21040376 0.10989489
000130 a7 87 89 3c d4 36 58 3e ca af 08 bd e1 6a ec bd
       0.016788317 0.21114665 -0.03337077 -0.11543823
000140 9a 2e 5c 3d 73 d6 05 be 03 26 97 3d 75 13 a5 3e
       0.05375538 -0.13070087 0.07380297 0.32241407
000150 c0 bd 6a 3d 9e b8 34 3c ea c6 17 3d 5b 3b f6 bd
       0.057309866 0.011030344 0.037054934 -0.1202304
000160 d6 ce 2d 3c 84 69 74 be 3a ed 5f 3d 13 a3 43 be
       0.010608396 -0.23868376 0.054669596 -0.19105177
000170 f7 45 13 bd 75 0e 3c be 7a 92 df 3d 22 43 82 bd
       -0.035955396 -0.1836489 0.1091661 -0.06360461
000180 a9 3c a7 bc 86 80 0d 3d 08 ec 2c be 5a f8 dc bc
       -0.020414667 0.034546398 -0.16886914 -0.026973892
000190 89 99 4a be 64 28 80 be f8 20 42 be 96 f1 97 3d
       -0.19785132 -0.25030816 -0.18957889 0.07419126
0001a0 60 68 03 be 5d 54 6c bd 15 31 1f be d9 cd f1 bd
       -0.12832785 -0.057697643 -0.15546067 -0.118068404
0001b0 9f e2 1b 3d a5 e5 14 3e 36 88 ed bb 31 dc a5 3c
       0.03805792 0.14540727 -0.0072489036 0.020246597
0001c0 2c c6 a9 3d 08 81 02 3e 43 40 2e 3e 33 53 b6 3c
       0.082897514 0.12744534 0.17016701 0.02225647
0001d0 40 02 6c 3e 80 32 d0 3d 78 4d 26 3c 4c af 51 be
       0.23047733 0.10165882 0.010150306 -0.20477027
0001e0 4c 43 3f bd f7 23 8b 3c 92 c1 9d bd c5 e1 16 bd
       -0.04669504 0.016984923 -0.07702936 -0.036836404
0001f0 da b3 95 bc 42 e6 b7 3c d9 dc e7 3d 83 e8 40 bc
       -0.018274236 0.022448663 0.1132142 -0.011774185
000200 f7 61 38 be df 3d aa 3e 0f 8e 54 bd e1 af d8 3d
       -0.1800612 0.3325033 -0.05189329 0.10580421
000210 fc c6 b4 3c df 7e 2b 3d db b8 ad 3d ae 05 62 bc
       0.02206754 0.04186904 0.08482524 -0.013795299
000220 be 94 7e be 07 cf 86 bd bb e3 66 be 37 b0 e7 bc
       -0.24861428 -0.06582456 -0.2254781 -0.028282268
000230 a3 fa 00 3b 91 0f 4e 37 e7 5c 76 bc f5 db 16 3c
       0.001968064 1.2282181e-05 -0.015036798 0.009207715
000240 66 f1 60 be 46 84 40 bd 0d ab 18 3d 75 37 35 3e
       -0.21967086 -0.047001146 0.0372725 0.17696936
000250 40 1b ae bd 4a 52 92 3e a4 71 84 be 1a dc 38 be
       -0.08501291 0.28578407 -0.2586795 -0.18052712
000260 68 6f 13 be 08 08 60 3e 3d bf b3 bb b6 d8 95 ba
       -0.14397967 0.21878064 -0.005485444 -0.0011432383
000270 5c 6d 46 3e 89 57 08 3e 00 00 83 bc 7c ce 48 3e
       0.19377655 0.13314642 -0.015991211 0.19610018
000280 96 cb f1 bd 13 49 1a be 4e 3f c6 3d d4 1f 00 bc
       -0.11806409 -0.15066938 0.09680043 -0.007820088
000290 ab 82 69 3d 61 92 c8 3d 87 ba 87 be f8 d3 5a 3e
       0.05700938 0.097935446 -0.26509497 0.21369922
0002a0 1c be 53 be 9a 84 5d be e6 52 81 3d 5f 67 2e bd
       -0.2067799 -0.21632615 0.0631464 -0.04257905
0002b0 3e 3d 25 3e a4 ad 43 be d7 33 5b 3d b1 ed 90 3d
       0.16136643 -0.19109207 0.053516235 0.07076586
0002c0 5a df 73 3e ec 32 f1 3d 19 64 86 3c 22 1f ed 3d
       0.2381567 0.11777291 0.016405152 0.11578204
0002d0 9f f0 93 be 67 7e 53 3e fa f9 9f 3e f1 26 a6 3d
       -0.28894517 0.20653687 0.31245404 0.08112896
0002e0 b6 61 46 bd 0f 3d 17 3e 61 dd bb ba 82 09 08 3e
       -0.04843303 0.14769386 -0.0014332944 0.13284877
0002f0 04 da 78 3e c0 c7 00 be f8 44 06 3d 40 ee 77 bd
       0.24301916 -0.12576199 0.032780617 -0.060529947
000300 30 d5 10 3e da a3 6b 3d 05 d6 c3 3b 4f 06 6d 3e
       0.14143825 0.057529308 0.005976441 0.23146938
000310 84 fe 20 bd a7 98 40 3d 07 c0 af bd f3 f1 8a 3d
       -0.039305225 0.04702058 -0.08581548 0.067844294
000320 19 ee ab 3d 31 96 da bd 5b 7a 22 3e 11 63 a0 3d
       0.08395023 -0.10673178 0.15866987 0.078313954
000330 0c 6f 9a 3d 2c 74 91 bc 39 38 24 be cd 5f 93 bc
       0.07540712 -0.01775559 -0.16037072 -0.017990017
000340 01 06 c8 bd 8d fb 23 be cc ee 59 be 9b be 5f 3d
       -0.0976677 -0.16013928 -0.212825 0.054625135
000350 64 7d 69 3d 5f 5c 7f 3e a4 25 9e 3d 85 b9 83 be
       0.057004347 0.2493758 0.07722023 -0.25727478
000360 2b 9a 33 3e 20 41 44 ba 1e c2 38 3e 35 6b c8 3d
       0.17539279 -0.0007486511 0.180428 0.09786073
000370 1a d3 07 bd 77 c4 30 be ff e6 8b be 68 e7 35 3d
       -0.033160307 -0.17262445 -0.27324674 0.04441014
000380 ee 0c 1d bd be 30 9c 3c 4a 1f 88 3d bc a6 c6 3d
       -0.03834241 0.01906621 0.06646593 0.09699771
000390 6b 74 85 3d 4a 6b 0e be 18 cf 0d 3d 00 98 c1 bd
       0.065163456 -0.13908115 0.034621328 -0.0945282
0003a0 3d d3 92 3d 90 d3 19 bd 44 b4 88 3d e9 e4 1a 3e
       0.07169197 -0.037555277 0.06675008 0.15126385
0003b0 21 db 5a bd 25 e7 83 be d2 db 02 3d 45 2a 48 bd
       -0.053431634 -0.25762287 0.03194792 -0.048868436
0003c0 ec 6b ea bd fa 8f 84 3d dd f3 2b be be 78 74 bd
       -0.11446366 0.06472774 -0.16792245 -0.05968546
0003d0 21 38 00 3e e4 14 fb bc 55 7b d5 bc 2a 87 7a 3d
       0.12521411 -0.03064961 -0.026059786 0.06116406
0003e0 01 d1 d2 bd 29 54 c7 3d 94 7e 45 3e 28 27 c8 3d
       -0.102937706 0.09732849 0.19286567 0.097730935
0003f0 32 8d d7 3d 49 80 ed bc b6 aa 20 be 90 72 0e bd
       0.10524978 -0.028991835 -0.15690121 -0.034777224

bias f4 [128]
000000 28 89 22 3d 36 91 19 3b c1 36 5d 3d 2c 48 c4 3d
       0.039681584 0.00234325 0.054007296 0.09584078
000010 3a a8 d2 3d e5 14 0e 3e d4 b2 12 bc 25 ac 5b bd
       0.10285993 0.13875158 -0.008953769 -0.053630967
000020 30 50 ea 3c 19 d0 d8 3d 4e e8 14 3d 5d 2f e7 3d
       0.02860269 0.105865665 0.036354356 0.11288331
000030 0a 99 ad 3d 2b 1a c6 3b 5c 4a c8 3d 74 49 3a 3e
       0.084764555 0.0060456 0.09779808 0.18192083
000040 8f ef c2 bc 3b 9c 9b bc 20 8a 0b 3b d1 ea a0 3d
       -0.023795871 -0.018995395 0.0021292046 0.07857288
000050 67 a2 34 bd 03 97 1d 3e 4c 9c 4a bd 5e 5f 1d 3d
       -0.04410019 0.15389638 -0.049465463 0.038421027
000060 f8 26 9a bb 54 dc 0f bc 75 2e cd 3d 65 70 cc 3d
       -0.0047043525 -0.008780558 0.100186266 0.09982375
000070 2c 30 94 3d e3 3a b0 3d 98 9e 7a 3d b1 01 40 3c
       0.072357506 0.08604982 0.061186403 0.011719153
000080 4f 0e 97 3b bb 9f 9b 3d fe 61 a6 3d 68 23 ef 3d
       0.00460986 0.075988255 0.08124159 0.11676675
000090 b6 a4 63 3d 8b d4 b2 3c 7e 20 fd 3d f2 9a 06 3e
       0.055577002 0.021829864 0.12359713 0.13145044
0000a0 97 69 4c 3d 10 8f 82 3c b5 2e 8b 3d 73 99 53 3e
       0.049905386 0.015937358 0.06796018 0.20664005
0000b0 8b d0 5c 3e b6 84 aa 3b ba b3 e1 3d f9 e1 c0 3d
       0.21563928 0.0052038087 0.11020608 0.09418101
0000c0 19 9f b1 3d 84 bd 30 3e 40 d0 b3 3d d7 37 8f bd
       0.086729236 0.17259794 0.08779955 -0.069930725
0000d0 5a ad a2 bc d1 7f b1 3d 04 16 14 3d 80 26 ea 3d
       -0.019858051 0.08666957 0.03615381 0.114331245
0000e0 5c f6 3e 3c aa a0 6b 3d 29 da 26 3e d1 43 b2 3d
       0.011655416 0.057526268 0.16294159 0.08704341
0000f0 97 85 10 3d 4d 25 ef 3d af 31 93 3d 0d f1 8e 3d
       0.03528365 0.116770364 0.07187211 0.069795705
000100 2f de b5 3d 66 25 69 3d 2f e4 0c 3e 2f 10 8b bc
       0.08880269 0.05692043 0.1375892 -0.01697549
000110 fd af fa 3b 04 8b a1 3d f7 26 09 3d b4 6b 1a 3e
       0.007650374 0.07887843 0.033484425 0.15080148
000120 15 8a 98 3d 48 b9 97 bc e6 10 17 3e 33 69 0c 3e
       0.07448212 -0.018520966 0.1475254 0.13712005
000130 84 64 a5 3d 0d 82 db 3d b9 ad 67 3d 12 78 dd 3d
       0.080758125 0.107181646 0.05656216 0.10813917
000140 fb af bb bb 55 7d a0 3c f4 be 47 3d 3f 09 44 3e
       -0.0057277656 0.019591013 0.04876609 0.19144152
000150 bc 1c 09 3e ee c8 c2 3d fc 8c 0d 3e c1 b8 aa 3c
       0.13389868 0.095109805 0.13823313 0.02084005
000160 cd fb f1 3d 73 a6 f4 3d ca b1 9e bc 2f a7 9e 3d
       0.11815605 0.1194581 -0.019371886 0.077467315
000170 9a f6 a3 3b d2 13 b9 3c dc 1d af 3d f5 23 04 3d
       0.0050037624 0.022592459 0.08550617 0.032260854
000180 0d ce 51 3d 82 f6 1c bd 8e 08 9a 3d e2 00 4c 3e
       0.051221896 -0.038321026 0.07521163 0.19922212
000190 a9 28 91 bd 14 5e 4b 3d 66 86 01 3e f8 10 d6 bc
       -0.070878334 0.049650267 0.12648925 -0.026131138
0001a0 8e 66 a3 3c 76 d4 7b 3d 5c e1 6f 3d 1a 8f c6 3d
       0.019946363 0.061481915 0.05856453 0.09695263
0001b0 85 5e 09 3e eb 3e cc 3c 36 2f 12 3d 56 a2 9c 3c
       0.13414963 0.024932345 0.035689555 0.019120377
0001c0 91 f7 54 3e 29 81 9c 3b 64 53 cb bd 02 de 92 3d
       0.20797564 0.0047761393 -0.09928015 0.07171251
0001d0 e8 51 d5 3d cd e4 c3 3d e9 dd 9a bc 4b d5 30 3e
       0.10416013 0.09565125 -0.018904643 0.17268865
0001e0 19 3e 3a 3b 00 ce af 3d 4d 9f ac 3d 1b 92 97 3c
       0.002841836 0.08584213 0.08428822 0.018502286
0001f0 8c 2d a5 3c 4c 70 13 3e a7 7d 86 3d 89 69 32 3d
       0.02016332 0.14398307 0.06566935 0.043557677

weight f4 [8, 128]
000000 ff 3a e7 be da d5 93 be e7 29 de be 1d df 35 3e
       -0.45162198 -0.28874093 -0.43391344 0.17760892
000010 24 2c 9f bc 12 19 19 3e af 9a 87 3e 4b b7 8e 3e
       -0.019430228 0.1495097 0.26485202 0.27874216
000020 f8 7e 78 3e ee e1 8d 3e 02 4e 86 be 39 2a cc be
       0.24267185 0.27711433 -0.2623139 -0.39875963
000030 b2 83 4c 3e a6 b6 43 3e 3f 64 e3 3d 85 d9 ed be
       0.19972113 0.19112644 0.11103105 -0.46455017
000040 fa 08 ab be 2b 23 8d 3e f3 71 89 3e 8f 00 a0 be
       -0.33405286 0.27565894 0.2684475 -0.31250426
000050 a1 90 f1 3d c3 67 e1 be cc 59 0b 3e 74 39 fc be
       0.11795164 -0.44024476 0.13608474 -0.49262583
000060 0a 05 79 3e 30 6b 12 be 6e 23 0a 3e a8 ce 07 bf
       0.24318328 -0.14298701 0.13490078 -0.5304971
000070 70 bf 41 3e ce 76 1a 3e ba b5 8a be d1 46 35 3e
       0.18920684 0.15084383 -0.2709177 0.17702796
000080 6f ae 13 3d 6c e6 57 3e 9e c6 6b 3e a7 07 4b be
       0.036055025 0.21083993 0.23024985 -0.19827138
000090 38 98 76 be df f7 5a be 5e 95 da be 6b 14 1d be
       -0.24081504 -0.21383618 -0.42692083 -0.1533982
0000a0 3f 5c 0b bf e8 cd b0 be a1 e9 e9 3d 8f 03 e8 be
       -0.5443763 -0.34532094 0.11421514 -0.45315215
0000b0 c8 37 8f be be 29 7a be b2 4c 83 3e b0 02 72 be
       -0.27972245 -0.24429986 0.2564445 -0.23633838
0000c0 9d f5 c3 be 6b 95 fc be db a2 8e be bc 4b 67 3e
       -0.38273326 -0.49332747 -0.27858624 0.22587484
0000d0 25 2f b3 be c1 ad 20 bc 85 6c 9c 3d b9 f5 f5 be
       -0.34996906 -0.009807051 0.07637886 -0.48039034
0000e0 e8 5c 69 3e d9 c3 17 3e 95 80 23 3e f0 1c 8d 3e
       0.22789347 0.14820804 0.15967019 0.2756114
0000f0 34 90 bf 3d 1e fc a7 be 3b c3 b7 be 21 09 fc 3d
       0.093536764 -0.32809538 -0.35891137 0.12306429
000100 86 1e 95 be 6a d6 2a 3e d7 aa 0c 3e ce 99 7a 3e
       -0.2912485 0.16683355 0.13737045 0.24472734
000110 88 fc 1a 3e 0b bd 90 be d2 97 da be 8e f1 ca be
       0.15135396 -0.28269228 -0.42693955 -0.39637417
000120 8e e0 db 3d cf 69 43 3e 50 be bd be f8 c7 f0 be
       0.1073619 0.19083332 -0.3705926 -0.47027564
000130 9c c3 18 bc e3 8b ab be d6 19 58 3e 43 e2 19 be
       -0.009323981 -0.33505163 0.21103606 -0.15027718
000140 82 30 ce 3d 53 de a7 3e bd 58 b1 be f3 5a db be
       0.10067846 0.32786807 -0.34638014 -0.42842826
000150 52 19 83 be 0f ae ad be 9c d8 be be d2 fa 40 3e
       -0.25605255 -0.3392186 -0.37274635 0.1884568
000160 a8 cf 00 bf ba 7c 94 be 81 46 a5 3e 9d d1 d2 be
       -0.5031686 -0.2900141 0.32280353 -0.41175547
000170 02 9e 43 3e bf e6 e2 be e0 9a 47 3e ec 46 48 3e
       0.19103244 -0.4431667 0.19492674 0.19558305
000180 79 3d 92 be 9c 95 af 3e 0e bf ee be c3 48 ae be
       -0.28562525 0.3429383 -0.46630138 -0.34039888
000190 a3 b3 6d 3e 62 e5 ff be 6e 1e ff be 84 12 0e 3e
       0.23213057 -0.49979693 -0.49827904 0.1387425
0001a0 9a ca ff be 0c 59 d9 be 15 f3 b0 be 22 19 5a be
       -0.4995926 -0.4245075 -0.34560457 -0.2129865
0001b0 53 fd 7f be 94 d6 b0 3e 6a 95 b4 3d 83 21 3a 3e
       -0.2499898 0.3453871 0.08817561 0.18176846
0001c0 a4 df 36 be fb c9 c3 3e 52 94 e0 3d 69 9a 04 bf
       -0.1785875 0.38240036 0.1096579 -0.5179811
0001d0 cc 53 87 3c 6f 3f 6c 3e 0d 06 cc be 30 c3 9f be
       0.01651945 0.23071073 -0.39848366 -0.31203604
0001e0 7b 91 01 be a0 99 54 3e 2c 9b 48 be ae 1a be be
       -0.12653153 0.20761728 -0.19590443 -0.3712973
0001f0 d8 5f c7 be 28 23 ee bd ad d2 1d be e5 93 ba 3e
       -0.3894031 -0.11627799 -0.15412398 0.3644096
000200 be 49 7b be cd f2 49 bd cb bd 1a be ca bc 96 be
       -0.24539849 -0.04930382 -0.15111463 -0.2944091
000210 ee e4 81 3e 44 28 31 3e 9b 53 22 3e 97 e3 da bd
       0.25369972 0.17300516 0.15852205 -0.106879406
000220 29 ce e2 be 65 22 99 3e cd 16 84 3e 15 ae f9 be
       -0.44297913 0.29909053 0.25798646 -0.48765627
000230 f4 4c 83 3e 48 67 ca be 0c 48 dc be 53 5c 90 be
       0.25644648 -0.39531922 -0.43023717 -0.28195438
000240 0d b4 cf 3e b2 67 d4 be ba 89 ca be c7 a0 c2 be
       0.40567055 -0.41485363 -0.39558202 -0.38013288
000250 e3 19 70 be 9a 2e 59 3e 8f 17 18 be 43 c7 8c 3e
       -0.23447375 0.21209183 -0.14852737 0.27495775
000260 56 68 4e 3e 03 26 f0 be e9 e0 2e 3e ed 03 41 3b
       0.20156989 -0.46904 0.17077984 0.0029451803
000270 ae 86 36 bd ba 20 85 3e b0 4e 83 3e ef a4 89 3d
       -0.044562034 0.2600153 0.2564597 0.06720912
000280 71 25 9b 3e e9 2f 02 bf d9 77 c1 be 6f 0f fb be
       0.30302003 -0.50854355 -0.3778675 -0.49035212
000290 3e f5 9b be c3 8a 61 3e be 92 1a 3c e0 d0 d1 be
       -0.30460542 0.2202559 0.0094344 -0.4097967
0002a0 b1 c4 83 3e 67 c8 9f 3e fe bc 97 be 4d 41 bf be
       0.25736 0.31207582 -0.29636377 -0.37354508
0002b0 1d c8 18 bd a6 b9 45 be 2a 3f c7 3d 20 e1 73 3e
       -0.037300218 -0.193091 0.097288445 0.23816347
0002c0 b4 1f 3b 3d 0c f5 d4 be b6 29 46 3e ef 25 05 bf
       0.04568453 -0.41593206 0.19351849 -0.5201101
0002d0 10 05 b4 3e f7 fc 8e 3e 19 69 98 be 5f 68 b7 3e
       0.35160112 0.27927372 -0.29767683 0.35821816
0002e0 37 9d c2 be 21 a2 62 be 14 59 5b be f0 b6 95 be
       -0.3801057 -0.2213216 -0.214207 -0.29241133
0002f0 41 79 b4 3d c3 45 24 be e9 c1 5b 3e 86 7d ce 3d
       0.0881219 -0.16042237 0.2146069 0.100825354
000300 dd fc a5 bd 25 3a 4a be 47 f7 30 be 10 69 88 be
       -0.081048705 -0.19748743 -0.17281829 -0.26642656
000310 1d 62 80 be 46 da 1f be 87 a6 25 be 2c d4 d9 3d
       -0.25074854 -0.15610608 -0.16176806 0.10636172
000320 fe a2 76 3d 9c 5d 18 3e 5f 9b 3c 3e 78 ff b9 be
       0.060214035 0.14879459 0.18418644 -0.3632772
000330 2c 1c 01 3e b1 94 52 be 40 87 03 bf 56 2f 95 be
       0.12608403 -0.20564534 -0.5137825 -0.29137677
000340 3e da 94 3e af 48 e0 be f3 b5 c3 be cd c8 18 3e
       0.29072756 -0.43805453 -0.38224754 0.1492035
000350 de 0b 98 be 75 b5 83 be 2f 28 ac 3d 23 48 9d ba
       -0.29696554 -0.25724378 0.08406102 -0.0011999648
000360 20 16 29 3d ca e9 95 3e a4 0f 8b 3e 44 1a a0 be
       0.041280866 0.2927993 0.2716037 -0.3127004
000370 a4 ec 4a be e5 02 0a 3e bd 13 83 bc 59 f6 31 bd
       -0.19816834 0.13477667 -0.016000623 -0.043447826
000380 ec df da be 01 57 b7 3e 60 ef 12 bd fa 9d 78 be
       -0.42748964 0.35808566 -0.035872817 -0.24279013
000390 39 1d f0 be 76 df 31 3e bc c0 9b 3d f1 a1 a9 3d
       -0.46897295 0.173704 0.076051205 0.08282841
0003a0 31 79 82 3e e1 5c 05 3e 22 49 d1 bd 96 60 9f 3e
       0.25483087 0.13023712 -0.10219027 0.31128377
0003b0 db 99 98 be 77 db ca 3d aa 82 bb be 30 65 73 3e
       -0.29804882 0.09905141 -0.36623126 0.23769069
0003c0 b9 32 f5 3d de 73 e3 3e ff 11 fb 3e a0 02 8e 3e
       0.11972565 0.44424337 0.49037167 0.27736378
0003d0 d6 af 03 3e ea fb 1e be 9f 86 90 3e f2 58 74 3e
       0.12860045 -0.15525785 0.28227708 0.23862055
0003e0 d2 ea 60 3e 92 24 9b 3d 7d 87 9c be f8 19 d3 be
       0.21964577 0.075753346 -0.3057212 -0.4123075
0003f0 29 88 ab 3d 1c ed 0d bf 44 3f fe bd 52 c6 0e be
       0.0837558 -0.55439925 -0.12414411 -0.1394284

bias f4 [8]
000000 7e 11 ba bd 91 44 8f bd 74 11 d7 3d 59 09 a4 bb
       -0.090853676 -0.069955 0.10501376 -0.005005997
000010 3b 58 10 3d 88 3e 17 3d c4 ff e0 bd fc 1b 96 3c
       0.035240393 0.03692487 -0.109862834 0.01832389
