VolumeLevel/train_model/model.pth (torch, 134976 bytes, 4 tensors)

fc1.weight f4 [128, 256]
0	0xbc9e7b54	-0.019345917
1	0xbc877aeb	-0.016538104
2	0x3e600fe9	0.21881069
3	0x3eb31656	0.34977978
4	0xbdbe83be	-0.093024716
5	0xbe9e6b9a	-0.30941468
6	0xbe2193df	-0.15779065
7	0xbe8a4598	-0.2700622
8	0xbe6a0aa2	-0.22855619
9	0xbe6e7b8e	-0.2328932
10	0x3ddaff7a	0.106932595
11	0x3dd007f7	0.10157769
12	0x3c1682a5	0.0091864215
13	0xbdd7a567	-0.10529595
14	0xbe0b6dbd	-0.1361608
15	0x3d91c32c	0.07117304
16	0xbcf7fced	-0.030271972
17	0x3d1797bb	0.037009936
18	0x3e928ecf	0.2862458
19	0x3dd2d4e7	0.10294514
20	0xbe5e98f8	-0.2173804
21	0xbd2582cd	-0.040407944
22	0x3e213eea	0.15746656
23	0x3e81d85a	0.25360376
24	0xbe3426c0	-0.17592907
25	0x3cfa7814	0.030574836
26	0xbdad82b8	-0.08472198
27	0x3df2bdeb	0.1185263
28	0xbe3ac16f	-0.18237852
29	0x3caaa5b3	0.020830965
30	0xbe368639	-0.1782464
31	0xbe45a9aa	-0.19303003
32	0x3e1127d1	0.14175345
33	0x3ce75d1a	0.028242636
34	0x3ea4dbf9	0.32199076
35	0xbe5a0e98	-0.2129463
36	0x3ae9a33a	0.0017825135
37	0xbe95936b	-0.29214033
38	0xbdddc31d	-0.108282305
39	0x3e013f19	0.12621726
40	0x3e30d2a3	0.17267852
41	0xbe033f0b	-0.12817018
42	0xbcb37ba9	-0.021909552
43	0xbe66462a	-0.22487703
44	0xbe05f082	-0.13080028
45	0x3e1d6395	0.15370019
46	0x3e916ac1	0.2840176
47	0x3e9d3c04	0.3070985
48	0x3b8a374a	0.0042180168
49	0x3e0a1b63	0.1348701
50	0x3d859b31	0.06523741
51	0x3dc46556	0.09589641
52	0x3cee5e1b	0.029097607
53	0xbe17f43f	-0.14839266
54	0xbcaef51f	-0.021357117
55	0xbec7e000	-0.39038086
56	0xbd59461c	-0.053045377
57	0xbdddc858	-0.10829228
58	0xbe9e91bc	-0.30970562
59	0x3e410199	0.18848266
60	0x3d024bb0	0.031810462
61	0x3cf8e1ac	0.030381046
62	0x3dc824c6	0.09772639
63	0x3b0a12fb	0.0021068442
64	0xbc8406cc	-0.016116522
65	0xbcd78553	-0.026308691
66	0xbeb8a09e	-0.3606004
67	0xbeb183ca	-0.3467086
68	0xbe7e5697	-0.24837719
69	0x3dc35742	0.095381275
70	0xbe9db32e	-0.30800766
71	0x3ce86bc8	0.028371707
72	0xbd20a186	-0.03921654
73	0xbca67d91	-0.020323547
74	0xbcdbb1c1	-0.026818158
75	0xbd18a49c	-0.03726636
76	0xbe5f9fa1	-0.21838237
77	0x3e966aff	0.29378507
78	0xbe207588	-0.15669835
79	0xbda201d6	-0.079105064
80	0x3d4ca531	0.049962226
81	0x3e07a1e4	0.1324535
82	0x3ac318db	0.0014884727
83	0x3d63ab51	0.055583302
84	0x3d67c7a6	0.056586884
85	0xbd413e2c	-0.047178432
86	0xbd00304e	-0.031296067
87	0x3e0b776f	0.13619779
88	0xbdeb1157	-0.11477917
89	0xbd09156c	-0.033467695
90	0x3d18bea2	0.037291177
91	0x3ed5b8a6	0.41742438
92	0xbe71a765	-0.23599012
93	0x3de04408	0.10950476
94	0x3eab0735	0.33403936
95	0xbd143a6f	-0.03618854
96	0x3e2462d3	0.16053323
97	0x3dc2fa97	0.095204525
98	0x3e333b13	0.17503004
99	0xbe18ab47	-0.14909087
100	0xbdb3a084	-0.0877085
101	0x3e7b577f	0.24545096
102	0x3e02a3d7	0.12757812
103	0x3dd4329a	0.10361214
104	0x3e2bd658	0.16780984
105	0x3d8827b4	0.06648198
106	0x3e420f12	0.18951061
107	0xbca93d0e	-0.020658996
108	0x3dee86d1	0.11646808
109	0xbe2ae6e1	-0.16689636
110	0x3e576e7c	0.2103824
111	0xbe16d328	-0.14728987
112	0x3de30ebc	0.11086795
113	0x3e4438d9	0.1916231
114	0xbecfdd87	-0.405987
115	0x3e1bc201	0.15210725
116	0xbe76d958	-0.24106348
117	0xbe48fe74	-0.19628316
118	0xbdfa7e83	-0.122311614
119	0xbe08d5dc	-0.13362831
120	0x3e1c0cc0	0.15239239
121	0xbe03775f	-0.12838505
122	0x3e6a3c42	0.22874549
123	0x3de83586	0.11338334
124	0x3bf19052	0.0073719407
125	0x3d922dd5	0.07137648
126	0x3ca39bc9	0.019971745
127	0x3d790e8d	0.060804892
128	0x3e13e5ff	0.14443205
129	0xbd7bf4b7	-0.061512675
130	0xbdd0f492	-0.10202898
131	0x3e90ed26	0.2830593
132	0xbd0016df	-0.03127181
133	0xbd57580a	-0.052574195
134	0xbddfca9c	-0.109273165
135	0x3eb86d61	0.3602095
136	0x3dee4812	0.1163484
137	0x3d36b0c8	0.044602185
138	0x3e752553	0.2394002
139	0x3e8c5a26	0.27412528
140	0x3d6a08de	0.057137363
141	0xbe0ff82e	-0.14059517
142	0x3c8f5eac	0.017501198
143	0x3e583d0d	0.21117039
144	0x3e1d4a33	0.15360336
145	0xbdad26c0	-0.084546566
146	0xbe171c7b	-0.14756958
147	0xbe0cdcc4	-0.1375609
148	0x3eb184ed	0.34671727
149	0xbdce39b4	-0.100696
150	0xbdf6865e	-0.12037347
151	0xbd9ea7e7	-0.077468686
152	0xbe4c0c09	-0.19926466
153	0x3f052cb4	0.52021337
154	0x3b23b372	0.0024978784
155	0x3d4ea23c	0.050447688
156	0x3ee55b80	0.4479637
157	0x3dfb0981	0.12257672
158	0x3d1a21aa	0.03762976
159	0xbd62b042	-0.055343874
160	0xbe422815	-0.18960603
161	0xbdb5485d	-0.08851693
162	0xbe0e90ae	-0.13922378
163	0xbe68839e	-0.22706458
164	0x3e45e66d	0.19326182
165	0xbd7f2851	-0.062294308
166	0xbdaad45d	-0.08341286
167	0xbcaba135	-0.020950893
168	0xbbb65453	-0.0055642514
169	0x3ed0cda4	0.4078189
170	0xbde598b5	-0.11210767
171	0xbc943e39	-0.018096076
172	0x3de0c16a	0.10974391
173	0xbd962858	-0.07331914
174	0x3e94b7f4	0.29046595
175	0x3cc16b51	0.023610743
176	0x3ee4eba8	0.4471104
177	0x3c8b8251	0.017029913
178	0x3e244dad	0.16045256
179	0xbdd092da	-0.1018426
180	0xbe065e70	-0.13121963
181	0xbe847b17	-0.2587516
182	0xbe4d71ea	-0.20062986
183	0x3d0bac4f	0.034099873
184	0x3dcabea3	0.09899642
185	0xbd4a8e0a	-0.049451865
186	0xbdfe7c2e	-0.12426029
187	0xbd396261	-0.045259837
188	0x3ce1c4a3	0.027559584
189	0x3ea9cd1d	0.33164302
190	0xbe88dc24	-0.26730454
191	0x3edabc73	0.427219
192	0xbdd08300	-0.10181236
193	0xbec0da61	-0.3766661
194	0x3d947d89	0.072505064
195	0x3e9dc173	0.30811653
196	0x3eedf783	0.464779
197	0xbe8dfaad	-0.27730313
198	0xbb95cefd	-0.004571794
199	0x3cb6584a	0.022258896
200	0x3ca7d93d	0.02048933
201	0x3d89cb09	0.06728179
202	0xbdf92aab	-0.121663414
203	0xbe32f9fb	-0.17478172
204	0x3e1f6939	0.15567483
205	0x3d9a5ab1	0.07536829
206	0xbe3d446f	-0.18483137
207	0xbbbf969b	-0.005846811
208	0xbde32cb1	-0.110925086
209	0xbeb28d6f	-0.3487353
210	0xbe64b36a	-0.22334066
211	0x3e8211f7	0.2540433
212	0xbe4ba727	-0.19887982
213	0x3d04b7f2	0.032401986
214	0xbd586667	-0.052832033
215	0x3d0fdb0d	0.035121012
216	0xbd1b2c3f	-0.037883993
217	0xbdd53e11	-0.10412229
218	0xbe06e8a2	-0.1317468
219	0xbd3bc4d5	-0.04584201
220	0xbc90e466	-0.017687034
221	0x3e1ecedb	0.15508597
222	0x3df952cc	0.121739954
223	0xbe2229f2	-0.15836313
224	0xbc2f6e77	-0.010707489
225	0xbd9d6762	-0.07685734
226	0xbe3cf014	-0.18450958
227	0xbe9f673c	-0.3113345
228	0x3da87526	0.08225469
229	0xbde072b6	-0.109593794
230	0xbb9d4f37	-0.004800703
231	0x3dc1ea7f	0.09468555
232	0xbe0a2e8a	-0.13494316
233	0xbeae28f5	-0.34015623
234	0x3e878bdd	0.26473895
235	0x3d988944	0.07448056
236	0xbc999ff8	-0.018753037
237	0x3e461d4b	0.19347112
238	0x3e130bdf	0.14359997
239	0xbe20c443	-0.15699868
240	0xbdd78015	-0.105224766
241	0x3ee3068e	0.44340938
242	0x3e4cd169	0.20001759
243	0xbcf1da10	-0.029522926
244	0xbe5f0ec3	-0.21782975
245	0xbe19defc	-0.15026468
246	0xb995379c	-0.00028460927
247	0x3d1b86a4	0.0379702
248	0x3ca29e31	0.019850822
249	0x3d6b3708	0.05742553
250	0xbc2897c1	-0.010290087
251	0xbcf66f9e	-0.03008252
252	0x3e301fcf	0.17199634
253	0xbd64aacd	-0.05582695
254	0x3d574969	0.052560244
255	0x3be15e71	0.0068777134

fc1.bias f4 [128]
0	0xbdcfeda3	-0.101527475
1	0xbdbb23a2	-0.09137656
2	0xbe2f921f	-0.17145585
3	0xbd0ae61d	-0.03391086
4	0xbdccdada	-0.1000268
5	0xbe18d88c	-0.14926356
6	0x3bb6178f	0.0055570076
7	0x3bcd2714	0.006260762
8	0xbdaddd99	-0.08489532
9	0xbe1276b3	-0.14303093
10	0x3b05d62c	0.0020421846
11	0x3dc45b04	0.09587672
12	0xbcb18ed0	-0.021674544
13	0xbd71bdc9	-0.059018884
14	0x3bc6afb0	0.006063424
15	0xbe3091f4	-0.17243177
16	0x3d37edd2	0.044904537
17	0x3d449fbc	0.048003897
18	0x3dc912ff	0.09818076
19	0xbd275523	-0.040852677
20	0xbd0d5b69	-0.034511004
21	0xbdee0369	-0.11621744
22	0xbe1a7468	-0.15083468
23	0xbe059a37	-0.1304711
24	0xbd2a791c	-0.041619405
25	0xbdcc59f3	-0.09978094
26	0xbc9820a1	-0.018570246
27	0x3c92ce42	0.017920617
28	0xbc755157	-0.014973006
29	0xbd87e51d	-0.06635497
30	0xbcb7f987	-0.022457851
31	0xbdfe4fa1	-0.12417532
32	0xbe41610f	-0.18884681
33	0xbd17779a	-0.036979295
34	0x3d145665	0.036215205
35	0xbd826998	-0.06367797
36	0xbc50ca50	-0.012743548
37	0xbd718663	-0.05896605
38	0xbd238a62	-0.039926894
39	0x3e014bb6	0.12626538
40	0x3da26139	0.079287
41	0x3c5e5115	0.013569136
42	0xbd7b0300	-0.061282158
43	0xbd69a78c	-0.05704455
44	0xbdfe05e5	-0.12403468
45	0xbdf52d81	-0.1197157
46	0xbe2d2ae0	-0.16910887
47	0xbdbe3603	-0.09287646
48	0xbdcb93d2	-0.09940304
49	0x3d137e48	0.036009103
50	0xbd874f2b	-0.06606897
51	0xbd96a263	-0.073551916
52	0xbd9627ee	-0.07331835
53	0xbc862f64	-0.01638002
54	0xbdba4e3b	-0.090969525
55	0xbc09c3c8	-0.008408494
56	0xbe0fb2c5	-0.14033039
57	0x3c8770d0	0.016533285
58	0xbde698c2	-0.11259605
59	0xbd3fd041	-0.046829466
60	0x3c88352f	0.016626922
61	0x3cde1079	0.027107464
62	0xbd134879	-0.035957787
63	0xbbce9884	-0.0063048024
64	0xbd503c64	-0.050838843
65	0xbdcb44e5	-0.0992525
66	0xbce4b925	-0.027920315
67	0xbd1f3a0b	-0.038873713
68	0xbc8f2d34	-0.01747761
69	0x3c5c76a8	0.013456024
70	0xbcb6d05d	-0.022316152
71	0xbb29df0d	-0.0025920302
72	0xbdb9ee58	-0.090786636
73	0x3b2ab456	0.002604743
74	0xbd834040	-0.06408739
75	0xbd8bde8f	-0.06829559
76	0xbd509ced	-0.050930906
77	0xbdd41af4	-0.103567034
78	0xbd742743	-0.059607755
79	0x3cbe1b97	0.023206515
80	0x3d04cd7d	0.03242253
81	0xbe2a30b3	-0.1662014
82	0xbd99c7cb	-0.075088106
83	0xbc12f922	-0.008970531
84	0xbe0991d4	-0.13434535
85	0x3b5ebe7d	0.0033988052
86	0x3bab5c39	0.0052294997
87	0xbb9025c2	-0.0043990323
88	0xbdd1286a	-0.102127865
89	0xbe0246ff	-0.12722395
90	0xbdd0d93c	-0.10197684
91	0xbdb320a6	-0.087464616
92	0xbc84ef90	-0.016227514
93	0x3d1882aa	0.037233986
94	0x3dbe9075	0.09304897
95	0xbe23e812	-0.16006497
96	0xbe125e40	-0.14293766
97	0xbd6f215a	-0.058381416
98	0xbc9c504f	-0.019081263
99	0x3cfd56f4	0.030925252
100	0x3bb0fb12	0.0054010237
101	0x3d9fa28d	0.07794676
102	0xbd101160	-0.03517282
103	0xbd9275ae	-0.07151352
104	0xbdb9ff6d	-0.09081922
105	0xbcd53143	-0.026024466
106	0xbdae8a0b	-0.08522423
107	0xbd5cd63e	-0.053915255
108	0xbe0652f5	-0.13117583
109	0xbda490c1	-0.08035422
110	0xbe4ae396	-0.1981338
111	0xbcc08b99	-0.023504065
112	0xbdd35ec3	-0.10320809
113	0xbda02744	-0.07819989
114	0xbc7bb68d	-0.015363348
115	0xbdadd890	-0.08488572
116	0xbdbbc696	-0.09168737
117	0xbdd24dfd	-0.10268781
118	0xbca76104	-0.020432003
119	0x3bda2799	0.0066575524
120	0x3dc93a8f	0.09825622
121	0xbe4df875	-0.2011431
122	0x3c5a3f87	0.01332081
123	0xbdb751b4	-0.089511305
124	0x3ce03193	0.027367389
125	0x3cdcbbc0	0.026944995
126	0x3d87ca85	0.066304244
127	0xbd8dd612	-0.06925596

fc2.weight f4 [3, 128]
0	0x3fb02ad0	1.3763065
1	0x3f89b01f	1.0756873
2	0xbf74111d	-0.9533861
3	0x3f445079	0.7668529
4	0x3fa1806d	1.2617317
5	0xbf328661	-0.69736296
6	0xbf9f026f	-1.2422618
7	0x3f7689c9	0.96303993
8	0xbf614800	-0.8800049
9	0xbf9bfbbc	-1.2186198
10	0xbf57e821	-0.84338576
11	0x3f336fd0	0.7009249
12	0xbf648e06	-0.8927921
13	0xbfc8064f	-1.5626925
14	0xbf5941fe	-0.8486632
15	0x3f6ebd63	0.9325773
16	0x3eaf0d60	0.34189892
17	0x3f0195fa	0.5061947
18	0x3e6f6e1a	0.23381844
19	0xbed9d990	-0.425488
20	0xbf9f8903	-1.2463688
21	0x3f688992	0.90834916
22	0xbe557dc7	-0.20848761
23	0xbd4bbf9c	-0.04974328
24	0xbfc041bb	-1.5020059
25	0xbe452632	-0.19252852
26	0x3ea70ce7	0.3262703
27	0xbf3ce635	-0.7378877
28	0x3eab99bd	0.3351573
29	0x3f86a43c	1.051887
30	0x3f149ec2	0.58054745
31	0xbf7eb5f3	-0.9949638
32	0x3f3578da	0.7088753
33	0x3ed1aeee	0.40953773
34	0x3e9f624e	0.31129688
35	0x3e87cf35	0.26525274
36	0x3e52fd90	0.20604539
37	0xbf8e4a86	-1.1116493
38	0xbd46e6a8	-0.048559815
39	0x3e9e0728	0.30864835
40	0x3f1e4d4a	0.61836684
41	0x3e07ca03	0.13260655
42	0xbf686b5c	-0.9078882
43	0x3eee6278	0.465595
44	0xbdc3d495	-0.09562031
45	0xbf70900f	-0.93969816
46	0x3f323df7	0.696258
47	0xbfdf1fac	-1.743154
48	0xbb8e6f02	-0.0043467293
49	0x3f005b64	0.5013945
50	0x3f628199	0.88479
51	0x3e94fb43	0.29097947
52	0x3f2947c9	0.6612516
53	0x3e85ccc8	0.26132798
54	0x3eaaa0bd	0.3332576
55	0xbf7df4d0	-0.9920168
56	0xbfba6358	-1.4561567
57	0x3e47f63f	0.19527529
58	0xbf55169a	-0.8323761
59	0xbf896a9d	-1.0735661
60	0x3ec6c12e	0.3881926
61	0x3e748d87	0.23882113
62	0xbf90a587	-1.1300515
63	0x3ed16fd7	0.4090564
64	0x3f5dce70	0.86643124
65	0xbecc0624	-0.39848435
66	0x3e5a18ef	0.21298574
67	0x3e75d348	0.24006379
68	0x3f6d696a	0.92738974
69	0xbf7a48c5	-0.9776729
70	0x3e802b66	0.2503311
71	0x3e6e2f7a	0.23260298
72	0xbf8289c7	-1.0198296
73	0x3e87e0cb	0.2653869
74	0xbed12fc9	-0.4085677
75	0xbf2591f9	-0.6467586
76	0x3f134392	0.5752498
77	0xbf652fa3	-0.8952581
78	0x3f9becb7	1.2181615
79	0x3eeaf687	0.4589121
80	0xbf07eedf	-0.53098863
81	0xbf9ddb37	-1.2332524
82	0x3f59bee4	0.850569
83	0xbee3deb1	-0.44505838
84	0xbf696fac	-0.9118602
85	0xbe62280f	-0.22085594
86	0x3f578f27	0.8420281
87	0x3bd7e1f1	0.0065882136
88	0x3f7c67f6	0.9859613
89	0x3e7d894d	0.24759407
90	0xbfac40d2	-1.3457282
91	0xbf6f0c1d	-0.9337786
92	0xbfa43827	-1.2829636
93	0x3e1e5fa0	0.15466166
94	0x3e3f4639	0.18679132
95	0x3f832190	1.0244617
96	0x3ef7a881	0.48370746
97	0xbf960c3b	-1.1722482
98	0x3e497552	0.1967366
99	0xbfb42e9a	-1.4076722
100	0xbfb357ad	-1.4011132
101	0x3e5bd747	0.2146884
102	0xbfa6ffd3	-1.3046821
103	0xbf960c28	-1.172246
104	0x3fa23cdb	1.2674822
105	0x3f9712e4	1.180264
106	0x3db92662	0.09040524
107	0x3e680faa	0.22662225
108	0x3f08e788	0.5347829
109	0xbf92a1f5	-1.1455675
110	0x3fb2f869	1.3982059
111	0xbde391b6	-0.111117765
112	0x3f7a33a2	0.97735035
113	0xbfc37772	-1.5270827
114	0x3e95272a	0.29131442
115	0xbf2b05e6	-0.66805875
116	0x3f65b484	0.8972857
117	0xbfce7d48	-1.6131983
118	0x3e810728	0.25200772
119	0x3ef5bb9a	0.4799469
120	0x3e7bf661	0.24605705
121	0xbf29f603	-0.6639101
122	0x3f1b49f1	0.606597
123	0xbf116690	-0.5679712
124	0xbf1a4705	-0.6026462
125	0x3ed5ca24	0.41755784
126	0x3f9af6ed	1.2106606
127	0x3f548553	0.83015937
128	0xbf80fc60	-1.0077019
129	0xbf501560	-0.81282616
130	0x3f9504ef	1.1642131
131	0xbf9098db	-1.1296648
132	0xbf955d53	-1.1669105
133	0x3f9e7bf3	1.2381576
134	0x3ed038bc	0.40668285
135	0xbf1e088d	-0.617318
136	0x3e8349a3	0.25642118
137	0x3e721ea9	0.23644508
138	0x3e819136	0.253061
139	0xbe7bf935	-0.24606784
140	0x3e857d3e	0.26072115
141	0x3e6db733	0.23214416
142	0x3e63af52	0.22234848
143	0xbfcd9537	-1.6061162
144	0x3e2bc224	0.16773278
145	0xbd42eefb	-0.04759119
146	0x3eb72f7b	0.35778412
147	0xbea3b833	-0.3197647
148	0x3f049ae6	0.51798856
149	0xbf9c68c1	-1.2219468
150	0xbf59a85c	-0.8502252
151	0xbf5580be	-0.8339957
152	0x3de32ac1	0.11092139
153	0xbeff6fc0	-0.49889946
154	0x3e98bcc9	0.29831532
155	0x3ddc6502	0.10761453
156	0x3e8ca7c8	0.27471757
157	0xbe436a81	-0.19083597
158	0xbe195c20	-0.14976549
159	0x3fba8e1f	1.4574622
160	0xbf902499	-1.1261169
161	0xbf4f9448	-0.81085634
162	0x3e89f959	0.2694805
163	0xbf268ad7	-0.650556
164	0x3e2227c4	0.15835482
165	0x3e845d24	0.2585231
166	0x3f180b96	0.5939268
167	0x3e154e59	0.14580669
168	0xbe413656	-0.18868384
169	0x3ec07775	0.37591138
170	0xbd6b681e	-0.05747234
171	0xbda4f5de	-0.08054708
172	0x3f7478f9	0.9549709
173	0x3eb53214	0.3538977
174	0xbf85f9b6	-1.0466831
175	0x3ed43e5f	0.41453835
176	0xbf241541	-0.6409493
177	0x3d09c2b8	0.033632964
178	0xbf14674e	-0.5797013
179	0xbf63e67c	-0.89023566
180	0xbfacc4fc	-1.3497615
181	0x3ddc4c61	0.107567556
182	0xbf832d8b	-1.0248274
183	0x3e928140	0.28614235
184	0x3e9ac755	0.30230203
185	0x3eab6b32	0.3348022
186	0x3f8da23e	1.1065137
187	0x3e9d705f	0.30749795
188	0xbd200cbd	-0.03907465
189	0x3e312214	0.17298156
190	0x3ec439b3	0.3832527
191	0x3d6ce04e	0.0578311
192	0xbf55af0b	-0.8347022
193	0x3f2ec07b	0.6826245
194	0x3e65dd99	0.22447814
195	0x3ea1a483	0.31570825
196	0xbf10940f	-0.5647592
197	0x3ea87f79	0.32909754
198	0x3e782ef1	0.24236657
199	0x3e9adb04	0.3024522
200	0x3f702093	0.93799704
201	0x3e761614	0.2403186
202	0x3f526572	0.82186043
203	0x3e8b8046	0.27246302
204	0xbf380fb5	-0.7189897
205	0x3f800b1a	1.0003388
206	0xbfab1142	-1.3364642
207	0x3de8bf94	0.11364666
208	0x3c3063cf	0.010765984
209	0x3eec6d9b	0.46177372
210	0xbe6ff621	-0.23433734
211	0xbe83f8a5	-0.25775638
212	0x3f869ad7	1.0516003
213	0x3f2cdd37	0.6752505
214	0xbe6e56a0	-0.23275232
215	0x3eab7a1b	0.33491597
216	0xbf9281bf	-1.1445845
217	0xbf81e993	-1.0149406
218	0x3e94f4f5	0.29093137
219	0x3e98d0d9	0.29846838
220	0x3eee6c23	0.46566877
221	0x3e6680ec	0.22510117
222	0x3e7cbb81	0.24680902
223	0xbf939784	-1.1530614
224	0xbfa2a702	-1.2707217
225	0x3e4076e0	0.18795347
226	0x3e89f0ad	0.26941434
227	0x3ea5c59d	0.3237733
228	0x3edd8471	0.43265107
229	0x3e796dda	0.24358311
230	0x3e88e8c6	0.26740092
231	0x3ea63b21	0.32466987
232	0xbf51bec7	-0.8193173
233	0xbfb96c93	-1.4486259
234	0xbf699c85	-0.91254455
235	0x3e54ee51	0.20794035
236	0xbf8a7f53	-1.0820106
237	0x3e65efdb	0.22454779
238	0xbf5cc299	-0.8623443
239	0x3f170774	0.5899575
240	0xbfaa32c0	-1.3296738
241	0x3f1e1a44	0.6175883
242	0x3e3ba4b8	0.18324554
243	0x3cb667a5	0.022266218
244	0xbfb1e551	-1.3898107
245	0x3eead094	0.45862257
246	0x3e165d9a	0.14684144
247	0xbf92ee20	-1.147892
248	0x3eafb3e1	0.34316924
249	0x3f88e0b3	1.0693573
250	0xbdc56129	-0.096376725
251	0x3f640f2d	0.89085656
252	0xbdedc9e6	-0.11610775
253	0x3b922d66	0.0044609783
254	0xbf81c020	-1.0136757
255	0xbf95afac	-1.1694236

fc2.bias f4 [3]
0	0x3da13949	0.078722544
1	0xbdfbec12	-0.12300886
2	0x3ea0a701	0.31377414
