SpeechDisorder/DisorderCls/weights.pth (torch, 136080 bytes, 4 tensors)

weight f4 [128, 256]
00000000: af67 ccbd 008a 063e 90a4 923d 8a9c 82bd
00000010: 8644 d7bd 6727 3f3d 2798 86bd 17d6 c33d
00000020: 2789 763d 3d31 b83d a7ab d23d 5cfc 83bb
00000030: 4a7f 51bc 5c25 8cbd bf05 82bd 28fa 9fbd
00000040: 132e 90bd 18b2 bc3c 31b2 5f3d 7f71 0dbe
00000050: e9e3 133d f486 53bd f159 563c 7943 a23c
00000060: 477b 823d dc58 983d 04c0 8f3d 9aed bc3d
00000070: b045 5e3d b758 febd 3b18 003d 687e 8bbd
00000080: 3d87 fbbd 56bf b7bd 6132 3ebb 6a57 a7bd
00000090: f7de 6fbd 40d2 a1bd c6c8 e6bd efa9 47bd
000000a0: eb93 5bbd 8180 d63c 5f7e 92bc 204a d33c
000000b0: 5253 e93d 00a8 82bd 3a2f 9d3d 1fad 08be
000000c0: c3fb 0ebd ce20 d43d 4d42 c1bc 91a4 12bd
000000d0: da1c be3d eb4b c0bd aad1 343d a7e6 1b3e
000000e0: 76d7 cc3c 42a8 90bd 7adf a43d 580a 0fbd
000000f0: 1fc4 67bd 585a bcbc f85d 4e3c 83ba 75bd
00000100: 43d1 a7bd 89d2 7cbd d6e5 47bc de5d debd
00000110: eeae 02bd c50a b8bd fb00 22bb a6de bfbd
00000120: 20c4 1d3e ed7e a33d aa4f 26bb 8acb ac3d
00000130: 9d64 073d 8628 ab3d db3c 2bbc e293 adbc
00000140: 6952 b8bb 459b 95bd 4c05 14be 1aad 53bd
00000150: 7c6e 0d3e cb5e c3bd 00f5 3c3d 9c14 93bc
00000160: 6fd2 9ebd a3a8 c2bd 7dbb da3c 270b 873c
00000170: 7fe7 3c3d 5998 c53c 933e b93c 27f7 6abd
00000180: 2040 8bbd c979 bebb 54ca d93d dc31 06bd
00000190: e7c9 13be f1c0 b2bd e566 a1bc c639 b63c
000001a0: da22 80bd daf5 753d 5d6b 023d c4d5 d43c
000001b0: 7ef8 2bbe 9aad 363c 9cee 1abd 933e 2abd
000001c0: 0edf 63bd 59fd 873d 2a5f 8f3c 454b b1bc
000001d0: 3d1c 05be e117 57bb c9ab 993d 0291 053d
000001e0: 8984 cebd 6bb6 bbbc b0d4 fe3b 4bc8 08b7
000001f0: d155 18bd 1983 07ba 7965 ad3d d64a e3bc
00000200: af87 96bd 4cd3 173d df9f b6bd 8a75 9a3d
00000210: 3f7f 9bbd 57e9 bfbd 6260 123d ec32 c53d
00000220: 4f27 073e 68ca 87bd 6804 5d3c 2bcd af3d
00000230: c16c 42bc e6c1 003d a439 0bbe 2ecb a53d
00000240: 7cb0 2f3d 088b ac3c b335 95bc fd9d 64bd
00000250: 0545 0b3e 595a e93c 82d3 323d c378 2e3e
00000260: ba9c 79bd 6186 fdbd 6f74 d73d 93ed 0fbd
00000270: 1bf9 b83d 7a72 363d b14f d7bd d28f a63c
00000280: 0a7e 943d d415 cebd b91a 83bd 84ae b1bc
00000290: 14c9 063e feed 84bd 9866 f53d b1d3 813b
000002a0: 3240 1ebd 1b82 033d a659 833c 5351 763d
000002b0: b45e b13d f885 81bd a40e 963d 8985 7d3d
000002c0: dc92 09be dc4a 613d dd5a 5fbd d858 903b
000002d0: 626b 3f3d d1ef 4c3d 42c5 cabd 2943 16bd
000002e0: 2528 163d dcf4 b0bd f25f a4bd afde 66bb
000002f0: a9d4 a63d 1d97 5c3d 03a1 a23d 27f5 3e3d
00000300: a54b 6f3c 282c f33d 741a 513c b6b7 f73b
00000310: 9b65 343d 9d59 5bbd fa49 23bd c9e1 753d
00000320: 2fdd 91bd b16f 523d ec48 11bd de89 04bd
00000330: d284 7b3d 92a4 a73d fe53 ed3c 179b 06be
00000340: 6cc4 fb3a 359f 17be dd36 583c d36e 7abc
00000350: 7dc0 babd 895f e1bd 5c12 a23d 8e73 ee3d
00000360: f38d a8bd 9754 073e 42fa 033e 24b5 b63d
00000370: c74d 8abd a866 813d aceb e7bd f3fb 83bd
00000380: 25bb 71bd 6972 bcbd d767 9f3d 315c da3d
00000390: 6d15 8a3d 143b 2aba 89f3 0dbd 8ce8 f8bc
000003a0: 5376 7d3d ecdb f23d b36e 21be 70f1 883d
000003b0: 8403 693c 9cc3 9d3b 8b34 4ebd 9297 65bd
000003c0: f302 06bd d668 2e3d 15d9 d9bc 3c79 853d
000003d0: 7776 96bd e15f e9bd ff07 4e3d 5250 9e3d
000003e0: 7843 21bd acfd 1d3b ff17 143c 4b6f e8bd
000003f0: d068 81bd 5279 f0bc 6d1b 0f3d 204b 9fbc
-0.099807136 0.1313858 0.07160294 -0.06377514 -0.10511117 0.046668436 -0.065719895 0.09562319
0.060189392 0.089937665 0.10286646 -0.0040278863 -0.012786696 -0.06843063 -0.06348752 -0.078113854
-0.07040038 0.02303414 0.054613296 -0.13812827 0.036106024 -0.051642373 0.013082967 0.019807564
0.063711695 0.074388236 0.07019046 0.092250064 0.054265678 -0.12419265 0.031273108 -0.068112195
-0.12281654 -0.08972041 -0.0029021727 -0.0817097 -0.058562245 -0.0790143 -0.11268763 -0.048746046
-0.053607862 0.026184322 -0.017882524 0.025792181 0.11392845 -0.063797 0.076750234 -0.1334729
-0.034908067 0.103578195 -0.023591185 -0.035801474 0.09282847 -0.0938948 0.044145264 0.15224706
0.025005084 -0.07063343 0.08050437 -0.034921974 -0.05658352 -0.022992298 0.012595646 -0.059992325
-0.081942104 -0.06172422 -0.012200793 -0.108577475 -0.031905107 -0.08986429 -0.0024719823 -0.09368639
0.15406847 0.079831935 -0.0025377073 0.084372595 0.033054937 0.083573386 -0.010451521 -0.02118868
-0.0056250584 -0.07305006 -0.14455146 -0.051678754 0.13811678 -0.09539565 0.046132088 -0.017954163
-0.07754981 -0.09504821 0.02670073 0.01648481 0.04611921 0.024120497 0.022612846 -0.05736461
-0.0679934 -0.0058128578 0.10634294 -0.032762393 -0.14432488 -0.08728207 -0.019702384 0.022244345
-0.062566474 0.060048915 0.03184067 0.025980838 -0.16794011 0.011149788 -0.037825212 -0.04156358
-0.055632643 0.06640119 0.017501432 -0.021642337 -0.12999053 -0.003282063 0.075034685 0.032608993
-0.10083873 -0.022914132 0.007776819 -8.152866e-06 -0.037191216 -0.00051693764 0.0846662 -0.027745645
-0.07350098 0.037066743 -0.08917212 0.0754195 -0.0759263 -0.09370678 0.03573645 0.09628853
0.13198589 -0.06630403 0.01348982 0.085840546 -0.011866749 0.031434916 -0.13596207 0.08095394
0.042892918 0.021062389 -0.018214082 -0.055814732 0.13600548 0.028485464 0.04365874 0.17038254
-0.06094048 -0.12379146 0.10520255 -0.035138678 0.09031888 0.044542767 -0.10513247 0.02033225
0.072506025 -0.10062757 -0.06401581 -0.02168966 0.13162643 -0.06490706 0.11982459 0.003962003
-0.03863544 0.0321065 0.016033959 0.06013615 0.08660641 -0.06324381 0.07327011 0.061894927
-0.13434929 0.055003032 -0.054530013 0.0044051223 0.046733268 0.050033394 -0.09900905 -0.036685143
0.03665938 -0.08640453 -0.080261126 -0.0035227945 0.081460305 0.05385505 0.07940867 0.046620514
0.014605437 0.118736565 0.012762655 0.007559742 0.04404221 -0.05355226 -0.03986547 0.06002978
-0.071222655 0.05137605 -0.035469934 -0.032358043 0.061405964 0.08185686 0.028970715 -0.131451
0.0019208319 -0.14806826 0.013196674 -0.015285212 -0.091187455 -0.1100455 0.07913658 0.11643134
-0.082302 0.13215862 0.12888435 0.089212686 -0.06753116 0.06318408 -0.11324248 -0.0644454
-0.059016366 -0.092015095 0.07783478 0.10662115 0.06742368 -0.00064937887 -0.03465608 -0.030384324
0.06188042 0.11858353 -0.15764885 0.066866755 0.01422203 0.004814578 -0.050343078 -0.05605275
-0.032717656 0.042580448 -0.02659277 0.06517264 -0.07346814 -0.113952406 0.050300594 0.07730164
-0.039370984 0.00241075 0.009038924 -0.113493524 -0.063188195 -0.029354725 0.034938265 -0.019445002

bias f4 [128]
00000000: 9f0e bb3d 40e1 1e3d c6a3 8b3d b86e 21bd
00000010: e465 f93d 21f5 a93c 894b 8c3d c4cb b13d
00000020: 3de7 db3d 6079 f73d 047d cc3d e056 af3c
00000030: ccc6 ab3d 3890 1b3d 9949 863c 1f5b 7b3d
00000040: 7557 7e3d df5f df3d fe36 bb3d f45d f23d
00000050: 5687 1cba 0675 af3d 1e2f 843d f350 af3d
00000060: 0161 c43c db52 d43c d20e 753d de04 cd3c
00000070: 5a23 78bc 4695 983c 21e6 d23d a4b3 b33d
00000080: 623d 903d 55fa 9d3d df52 463c a60c fb3d
00000090: bacc 963d 1f44 be3d 8289 1fbc 63e7 e43d
000000a0: ff5d d13d 77a8 e43d 97f7 433d 7f67 ee3d
000000b0: dd7e 903d 7e2b 133d 42ae 723d 08a7 e33d
000000c0: 7042 e63d 3f17 903c e7f4 943c d835 883d
000000d0: 9adf 863d 14fa 9dbb a0c7 f03d b7a7 b33d
000000e0: ee1d aa3d 3861 b33d 039d 8d3d a425 9f3d
000000f0: f167 873d fc92 ab3d b52e 963d 68f4 5d3d
00000100: cb8a 0b3e 971f c03d 06bb 243d 5a54 8b3b
00000110: bdae a53d 7b00 a93d 048e 733c 62de ac3c
00000120: ced1 5e3d 28f7 b23d d4fa d63d d1e2 823d
00000130: d39b ca3d 80dc a53c 66f2 fb3c cd3d 2c3d
00000140: f33e 143c 93f3 503d bd6c 943c 961b f13d
00000150: 1bda 0e3d 6cc8 eb3d b24c b23d 0791 cc3d
00000160: e662 9c3d 2ca5 363d 78de 313d 7f56 fd3d
00000170: 755c 073c 1e44 853d 58be 053e ba34 083e
00000180: 56d1 453d a541 873c 1570 2d3d f619 d13d
00000190: c002 b03d 9934 6b3d e77f 573d c085 2f3d
000001a0: 73f4 fd3c 1bf4 663c 8515 aa3d c877 8d3d
000001b0: 4cc2 1f3d cfd4 173e b366 083e 5fe2 e33d
000001c0: 7e35 343d de57 ab3c 25fe 393d 7eea 8c3d
000001d0: d4d3 c23d 7be9 823d 87ef bf3d 9a75 b83d
000001e0: 7186 453e 2a2d a63d 3b33 d23d 944e 063e
000001f0: 5988 ba3c 24ed 023e 3033 873d 8beb 7f3d
0.09133648 0.038789034 0.06818347 -0.03941223 0.12177637 0.02074677 0.06850345 0.08681443
0.107374646 0.12083697 0.09984782 0.02140373 0.08387527 0.037979335 0.016392516 0.061366197
0.062095124 0.10906958 0.09141348 0.118343264 -0.00059710944 0.08567242 0.064542994 0.08560362
0.023972036 0.025918415 0.059828587 0.025026735 -0.015145147 0.018625867 0.102978 0.08774498
0.07042958 0.07713763 0.012104719 0.12258272 0.07363267 0.09290337 -0.009737374 0.11176946
0.102230065 0.111649446 0.047843542 0.11640834 0.07055447 0.03593015 0.059248216 0.11115843
0.11243141 0.01758921 0.018183185 0.06650895 0.06585617 -0.0048210714 0.117568254 0.087722234
0.0830649 0.087587774 0.06914713 0.07770851 0.06611622 0.083776444 0.073331274 0.054188162
0.13627164 0.09381025 0.040217422 0.004251999 0.08089969 0.08252045 0.014865402 0.021102134
0.054399304 0.087385476 0.104970604 0.06390918 0.09893002 0.020246744 0.030755233 0.042051125
0.009048211 0.05101354 0.018118257 0.1177284 0.03487597 0.11512837 0.08706035 0.09988599
0.07636051 0.044591114 0.043425053 0.123700134 0.00826179 0.06507133 0.13060892 0.13301364
0.04829534 0.016510794 0.042343218 0.1021003 0.085942745 0.057423208 0.05261221 0.042852163
0.031000352 0.014096285 0.08304886 0.06907612 0.039003655 0.14827274 0.13320427 0.11127161
0.043996327 0.020915922 0.045408387 0.06880663 0.09513059 0.06392189 0.09371858 0.09006806
0.19289567 0.08114083 0.10263678 0.13115913 0.022770094 0.12785774 0.0660156 0.06248049

weight f4 [3, 128]
00000000: baca 6abe 0ceb 5abe 99dc d13e 5325 eabe
00000010: 3c24 123e ba1d 8bbe 9f6d 57be c3a6 86be
00000020: 62e0 8c3e 5491 f8be 6726 8e3e a593 713e
00000030: 75a9 833e d871 56be ca75 9e3e 6897 883e
00000040: b554 85be d4e1 443e b65c 4ebe 984a 24be
00000050: 2b9f 2ebe 7fd6 a53e ded4 cc3d f74f 48be
00000060: fdb2 afbe 3c8f 13be 6055 203e 0901 12be
00000070: 7236 0a3d 0aee c3be b543 54be 410b a13e
00000080: a19c bebe 80aa 9ebe 9151 f73e 1aee 903d
00000090: 0962 9b3e 6ed5 d1be 64a4 adbe ed44 4ebe
000000a0: 1935 d7be 696d c73d ef1b 89be de21 983e
000000b0: abb3 88bd 0594 763e 0db5 93be d403 46be
000000c0: 2fde f13d ac17 f3be 841b f73e 8ef6 9bbe
000000d0: 4f00 7ebe 7941 743e aca3 8bbe 4587 3e3e
000000e0: a96c 713e 4546 2b3e 6fd1 25be 5a62 2c3e
000000f0: 6f75 71be 0b4c b83e 3a84 bd3d 0411 a1be
00000100: 87d4 02bc 14b6 b8be b64e 62be b22d 8fbe
00000110: a0bb cebe e9bb f53d d81f 953e 2db5 4bbe
00000120: fdd8 93be 5a41 83be fce7 b33e 4b28 973e
00000130: 5ea1 6d3e 34c2 fabe a434 9ebe c58a 433e
00000140: 5780 8ebe 1289 b03e b0ba 08bf 3660 f63e
00000150: e79f b53e a627 fc3d 785d 373e 40cc 903e
00000160: 5325 cbbe 56c9 10be 06c2 e0be 093a f8bd
00000170: 3410 d83e 691a 8abe 7554 6abe 08d3 e2bd
00000180: ba1f f1bc a55d ad3e 73c4 8abe 8a19 af3e
00000190: 82c2 78be bb48 8b3e e9a3 ef3d ba74 90be
000001a0: ffad 9bbe 4b41 77be 8822 593e 4125 523e
000001b0: 8c97 2cbd c41d 07be c188 b6be daf8 403e
000001c0: b5ea 963e f313 713e 11ab 9fbe ddf3 863e
000001d0: 4492 90be 2319 87be 447c a13e 5410 22be
000001e0: d29f c03d 777a 86be a521 313e 1411 ab3d
000001f0: 54bf 82be 60a3 9bbd d966 9e3e de26 dfbe
00000200: 0ce6 76bd cd24 613e a62c f2be 8fe7 ee3e
00000210: b434 b6be c125 b03e a082 8a3e 8e4b be3e
00000220: 4f35 8bbe c9e7 89bd 8bba e0be dc54 8fbe
00000230: 74e2 29be abf4 833e 3e6c 7bbe e44b 68be
00000240: 0af6 643e 493b 9dbd 7521 aabd 2087 ffbd
00000250: 78a3 6b3e 73a1 7dbe 3834 bdbe ef3e 643d
00000260: 0096 ad3e ca56 6e3e 25e4 933b 6367 8f3e
00000270: 0799 a7bd 30c9 c03e 86e2 863e 5188 a3be
00000280: cabf 12bd 129f 9a3e aaf1 ecbe bbca 4c3e
00000290: 5075 8cbe 9cd6 49be 32d0 853e d96c 07be
000002a0: eaa3 5ebe fa0f bc3d 54c9 81be c281 8fbe
000002b0: 72f0 37be a1f7 7ebe 2836 d2bb a2e6 30be
000002c0: 4e46 19be 323e 023f d985 04bf e364 9f3e
000002d0: 6c5d 13be e49d aebe 63e1 7b3e b6ca f13d
000002e0: d7d3 df3d 223c 8bbe 507f 09be ee31 b63d
000002f0: 43fe d9bd 5d53 9fbe 08ba b33d 075b 783e
00000300: c8af 083e 11bb c73e e8e8 1cbe 482b b63e
00000310: 256c 29be 8de6 c73d 6258 81be 268b 903e
00000320: cbc7 edbd a4e1 293e fcf8 43be b0a4 acbe
00000330: a649 c5bc 640b 453e 9486 8d3e dbcf b03d
00000340: 8dad 8c3e 5576 c1be bdf8 273f 9fa7 d0be
00000350: d476 9abe e422 90bd a9a9 413c ec8e bbbe
00000360: b218 a43e b4b0 e7bd 1862 d13e 0e7a c2bd
00000370: 9a0c eebe 5078 ae3e bf23 48be 8fb2 a4bd
00000380: b6c4 8c3e 1cf1 8fbe e970 893e e3c9 a4be
00000390: 9b25 4e3e 37a1 11be aeca 88be bd59 8e3e
000003a0: 5a4b dcbd d5a4 883e bdcb abbe 9b7e a8be
000003b0: e5cb 9fbe 1058 4bbe f76c 4bbe 0a14 f23d
000003c0: dfad 88be 183b 88be cc54 87be 2442 62be
000003d0: dea0 30be 5ce0 8a3e 0e34 b2be 3d0c de3d
000003e0: ebfe 02bf 4811 0c3d 0838 59bb 951d c8be
000003f0: a589 dcbd 8af6 46be c5f4 a9be a572 ac3e
-0.22928897 -0.21378726 0.40988615 -0.457316 0.14271635 -0.27171117 -0.21037911 -0.26299104
0.2751494 -0.48548377 0.27763674 0.23591478 0.25715223 -0.20941865 0.3094924 0.26678014
-0.2604119 0.19226772 -0.20152554 -0.1604408 -0.17052905 0.3239021 0.10001539 -0.19561754
-0.34316245 -0.14410108 0.15657568 -0.14258207 0.03374333 -0.38267547 -0.20728953 0.314539
-0.37228873 -0.30989456 0.48304418 0.07076664 0.30348232 -0.40983146 -0.33914483 -0.2014348
-0.42032698 0.09737665 -0.26779124 0.2971334 -0.06674894 0.24079902 -0.28849068 -0.19337398
0.11809956 -0.47478998 0.4826318 -0.30461544 -0.24804805 0.23853101 -0.2727331 0.18606289
0.23576607 0.16726024 -0.16193174 0.16834393 -0.23579954 0.35995516 0.09253736 -0.31458294
-0.007985241 -0.36076415 -0.22100338 -0.2796455 -0.40377522 0.11998732 0.29125857 -0.19893332
-0.28876486 -0.25635797 0.35137928 0.2952293 0.23206088 -0.4897629 -0.30899537 0.19095905
-0.2783229 0.34479576 -0.5340986 0.48120278 0.35473558 0.1231225 0.17906749 0.2828083
-0.39676914 -0.14139304 -0.43898028 -0.12120444 0.42199862 -0.26973274 -0.2288378 -0.11075407
-0.029434074 0.33860508 -0.27103004 0.34199172 -0.24292949 0.27203926 0.11701185 -0.28214055
-0.30406186 -0.24146001 0.21204579 0.20522024 -0.042136714 -0.13194948 -0.3565121 0.1884493
0.29475942 0.23542766 -0.311852 0.26357928 -0.28236592 -0.26386365 0.3154012 -0.15826541
0.09405483 -0.26265308 0.1729799 0.08352867 -0.25536597 -0.07599521 0.30937842 -0.4358434
-0.060277984 0.21986695 -0.4729969 0.4666104 -0.35587084 0.34403804 0.27052784 0.3716702
-0.2718911 -0.06733663 -0.4389232 -0.2799443 -0.16590291 0.25772604 -0.2455301 -0.226852
0.22359481 -0.07677323 -0.08307163 -0.12476945 0.23011577 -0.24768619 -0.36953902 0.05572408
0.33903503 0.23275295 0.004513281 0.28008565 -0.081834845 0.37653494 0.263447 -0.3193994
-0.035827436 0.30199486 -0.46278125 0.1999921 -0.27433252 -0.19710773 0.26135403 -0.13225116
-0.21742216 0.09182735 -0.25348914 -0.28028685 -0.17962816 -0.2489915 -0.0064151473 -0.1727548
-0.14968225 0.5087615 -0.51766735 0.31131658 -0.14391106 -0.34104836 0.24597697 0.11806242
0.10929077 -0.27194315 -0.13427472 0.08896242 -0.106442 -0.3111829 0.08775717 0.24253474
0.13348305 0.39009908 -0.15323222 0.35579896 -0.1654516 0.09760771 -0.25262743 0.28231162
-0.11610373 0.16589981 -0.19137949 -0.33719397 -0.02408297 0.19242626 0.27641737 0.08633395
0.2747616 -0.37785593 0.6561392 -0.40752885 -0.30168784 -0.07037905 0.011820235 -0.36632478
0.3205009 -0.11313 0.40895152 -0.09495936 -0.4649399 0.34076166 -0.19544886 -0.0804187
0.2749383 -0.2811364 0.26843956 -0.32185277 0.20131533 -0.14221655 -0.26717132 0.2780284
-0.1075656 0.26688257 -0.33553877 -0.32909092 -0.31210247 -0.19857812 -0.19865786 0.118202284
-0.26695153 -0.26607585 -0.26431882 -0.22095543 -0.17248866 0.27124298 -0.3480534 0.10842178
-0.51170224 0.03419617 -0.003314497 -0.3908507 -0.10768441 -0.19429985 -0.33194557 0.33681217

bias f4 [3]
00000000: 540c f1bc 8981 5dbc bd87 8fbd
-0.029424824 -0.013519653 -0.07008312
